comp_model_params_further_ep_9.pth (torch, 478531 bytes, 20 tensors)

conv1.weight f4 [8, 2, 5, 5]
00000000: 8910 2ebe d7e0 e5bd a558 d93e d542 89be
00000010: d8fb 66bd 05be 983e 7554 c3bd 204b 6f3d
00000020: aa0b f8be b276 1cbd 6000 7cbd 3c74 41be
00000030: 7eef 313e b0aa d5be f4ca de3d aaa6 85be
00000040: 3853 b6be 30ba a1bd 581e c4bc 9987 5b3e
00000050: 6758 e3bd 7237 9d3d c64e 0dbe 6b3e e43d
00000060: a22c 063e dfc8 5a3d ca69 36be 47d4 073f
00000070: 46b1 ba3c 80b7 10be 9bcc 8e3e 88b1 173e
00000080: a758 c5be 1877 46be f6fe 9cbb ea90 5e3e
00000090: 20ed 983c 6f06 933e d1cb 2dbd 25c4 4f3e
000000a0: 4b2e c03c f7ec dfbd 0fd0 02bd 1fa1 9e3d
000000b0: 8d02 02be 80fb 643c 06e9 c3bc ad72 91bc
000000c0: a456 8dbd f3d3 ecbd ace2 e0be 4cbf e9be
000000d0: 965a e53d a850 243c b340 913e cf3a 0dbe
000000e0: 38f7 19bd 3ca0 fabc 3ea5 603e 82d5 ecbe
000000f0: f7a8 ae3e 4b16 023c 36ad c03d 7e22 c43e
00000100: 15d3 f4be 2495 333d 60fb 83bd 75b0 233e
00000110: dd9c 2f3d 4d03 a03e c148 d6bd 43f8 65bb
00000120: 9a48 053d b4c7 8b3d 69f7 ad3d 65f9 debd
00000130: 743e 9e3e 12c6 133e 75b9 04bf fe80 893d
00000140: 751c 5ebd 17d3 2fbe 8d6d 923d 4357 52be
00000150: 902c bbbd 9209 f63d 0562 40be 9cc3 22be
00000160: b730 48bd 0047 a93e cb2d 0ebd b321 0cbe
00000170: 2ef8 133e 7f59 24be 39c8 1e3e c2a0 5bbe
00000180: 0bb9 dfbc 9f5a 6bbe a3d0 f03c d319 193e
00000190: 7d8b c8be e588 913e 70a9 08bf 22a9 e13e
000001a0: 7c1b 86be c408 32be 9b1c a5bd 8240 963d
000001b0: 568f 4d3e 2670 4d3d 2c30 92be 59a9 05be
000001c0: ff73 943d 833a 853d b719 17bd ca27 143e
000001d0: d30b 823e 7ff4 933e 2d8a fa3d e345 9ebe
000001e0: 131b f13d 90ac 283d 64ff 683e 4411 56bd
000001f0: 1544 30be 2c16 9abe 7db7 a13e 359f 0dbe
00000200: 0fc1 f73d 6d04 2a3d c0d7 7dbd e67b b13d
00000210: 8eab 3f3d 3a68 973e 620e c2bd 2f55 a0be
00000220: 67b3 8dbe cebf c0be 00f0 5f3e f544 53be
00000230: ea25 74be c6c5 5b3e 18d7 50be 6124 ecbe
00000240: c214 78be eebc b83c 4219 a4bc 30db 873e
00000250: 930c 90be 66f0 be3d f740 ea3d 4261 753d
00000260: cca9 ed3d 0214 6f3e 74c8 cbbe 902e 06be
00000270: abbe 593e 58bf fe3b b313 2f3d 6e53 8bbe
00000280: b5b8 b23d 8728 3ebe 7236 7d3e b9bc a7be
00000290: 08ab 073e eb05 e03e 5b14 abbd 3421 1cbe
000002a0: d923 34be 84bf 323d d392 2fbd fde3 1c3d
000002b0: 29cd 50be 9a3c cd3d 5b02 703e c6db c73d
000002c0: 0d0e 5ebd 972c 85be 819d ea3d ba6c 903e
000002d0: d0d3 1a3e c8b9 c63c 1cf2 5f3e 87ef 4ebd
000002e0: b922 713e b42d 99be c490 0b3f 0b90 e13e
000002f0: 73d3 063e e4df bdbc 94d2 fa3d 8e78 41be
00000300: ba21 b13c b2c9 cebe 0ff9 2d3e 5faf 89bd
00000310: bd77 ac3e ae9b b4be a59d 293e 554d 58be
00000320: 8d9e 003e 5949 3fbe 5efb 673e 7533 003d
00000330: 2e4e 463e 8b64 d03c f371 4abd 33e5 133f
00000340: 12b4 fd3d 743d 233e a57d 973d 6581 093e
00000350: 24be 12be bcaf 883e e596 46be 3c37 733e
00000360: c6e1 0d3e fc91 a7be a387 2ebe 330e 5c3c
00000370: 5c33 b73e fd7e 8d3d 9bac 943e e027 863d
00000380: 6b2c dabd 40ea 313e be02 033e 01e9 dabc
00000390: e896 743e 1201 d0bd 1d5a 7b3d 8897 a3be
000003a0: cd6d aabe 997b 983e 15b8 5a3d 2487 21bd
000003b0: e209 17be 9238 c83d 9fbc cdbd 3918 603e
000003c0: ab61 8ebe 8810 7ebd ef9c 673e 72fa 56be
000003d0: fcc6 acbe 3387 fe3d 486b 143d eedb f2be
000003e0: 91d1 683e 65b1 8ebe 5ab1 5d3e f924 56be
000003f0: 723a 273f c076 19bb eb98 c53e a621 5bbe
-0.16998495 -0.112245254 0.42450443 -0.268088 -0.05639252 0.29832473 -0.09537593 0.058421254
-0.484464 -0.038199134 -0.061523795 -0.18891996 0.17376515 -0.41731787 0.10878554 -0.26103717
-0.35610366 -0.078968406 -0.02394025 0.21438445 -0.11100846 0.07676591 -0.13799581 0.11144718
0.13102964 0.05341422 -0.17813793 0.53058285 0.022789609 -0.141325 0.27890477 0.14813817
-0.385442 -0.19381368 -0.004791136 0.21734968 0.018667758 0.28715846 -0.042430703 0.20289667
0.023459574 -0.10933869 -0.0319367 0.07745575 -0.12696286 0.013975978 -0.023914825 -0.017754877
-0.06901291 -0.115638636 -0.43922937 -0.4565376 0.111989185 0.010028996 0.28369674 -0.13791965
-0.03758928 -0.030593984 0.21938035 -0.46256644 0.34113285 0.007939885 0.09408037 0.38307565
-0.47817293 0.043843403 -0.0644443 0.15985282 0.042874206 0.31252518 -0.104630955 -0.0035090602
0.03253994 0.068252 0.08494455 -0.10887412 0.30907023 0.14431027 -0.51845485 0.067140564
-0.054226357 -0.17170368 0.071498014 -0.205411 -0.09139359 0.12013544 -0.18787391 -0.15894932
-0.048874583 0.3306198 -0.03471164 -0.1368473 0.14450142 -0.16049765 0.15506066 -0.21448043
-0.027309915 -0.22983788 0.02939636 0.14951257 -0.3916892 0.28424755 -0.5338354 0.4407435
-0.26192844 -0.17386156 -0.08062097 0.07336523 0.2007421 0.05015578 -0.28552377 -0.13052882
0.07248687 0.06505301 -0.036889758 0.14468303 0.25399646 0.28897473 0.12233386 -0.30912694
0.11772742 0.041180193 0.22753674 -0.05226256 -0.17213471 -0.3009504 0.31585303 -0.13830264
0.1209737 0.041508127 -0.061973333 0.0866621 0.046794467 0.29571706 -0.094753996 -0.3131499
-0.27675936 -0.37646335 0.21868896 -0.20631774 -0.23842588 0.21462163 -0.20394552 -0.46121505
-0.24226668 0.022551026 -0.020031575 0.26534414 -0.28134593 0.09323196 0.11438172 0.059907205
0.11604652 0.23347476 -0.3980137 -0.131037 0.2126414 0.007774275 0.042743396 -0.2721209
0.08726636 -0.18570147 0.247278 -0.3276117 0.13248837 0.43754515 -0.08353492 -0.15247041
-0.175918 0.043639675 -0.04286463 0.038303364 -0.20390762 0.100213245 0.23438399 0.09758715
-0.05421262 -0.26010582 0.11455823 0.28207952 0.15119863 0.02425851 0.21869701 -0.0505214
0.23548402 -0.2991768 0.5451777 0.4405521 0.13166599 -0.023178048 0.12247196 -0.18893644
0.021622527 -0.40388256 0.1698954 -0.067229025 0.33685103 -0.35275024 0.16564043 -0.2112325
0.12560482 -0.18680324 0.22654483 0.031299073 0.1936576 0.025438568 -0.049425077 0.57771605
0.12387861 0.15941411 0.07397012 0.13428266 -0.14330345 0.26696575 -0.19393499 0.23751539
0.13855657 -0.32728565 -0.17043929 0.01343112 0.35781372 0.06908987 0.29037938 0.06550574
-0.10653003 0.17374516 0.12794015 -0.026722433 0.23885691 -0.10156454 0.061365236 -0.31951547
-0.33286896 0.29781798 0.05339821 -0.03943552 -0.14749864 0.09776415 -0.10045742 0.2188424
-0.2780889 -0.062027484 0.22618459 -0.20993975 -0.33745563 0.12428131 0.036235124 -0.47433418
0.22736193 -0.27869716 0.21649686 -0.20912541 0.65323555 -0.0023416728 0.3859323 -0.21399555

conv1.bias f4 [8]
00000000: 1dff a8bc d974 efbf 2bde a3bc 426a 1bbd
00000010: f822 45bd f76b e6bc 53ad f8be ef74 93bc
-0.02062946 -1.8707534 -0.020003399 -0.037943132 -0.048129052 -0.028127654 -0.48569736 -0.018000094

conv2.weight f4 [16, 8, 3, 3]
00000000: c427 adbc 18b6 46bc ba20 54bc f6cf abbc
00000010: 7237 76bc b2d4 87bc 8220 8ebc 8736 6abc
00000020: 1078 94bc 8fb5 78bc b9e7 38bc b353 62bc
00000030: 40c5 c2bc 1211 31bc 518b c3bc bf69 49bc
00000040: 3d3a 9bbc 790b b6bc 223f 82bc 4d76 75bc
00000050: 1f4d a8bc 8614 bebc d33f a6bc 8840 97bc
00000060: 36db 94bc 2117 97bc 6e3f a1bc c872 99bc
00000070: 9c2c 83bc 3dd5 a5bc 8ee4 5cbc 3999 a2bc
00000080: de5d b5bc 9e49 60bc 4411 16bc fe5c 37bc
00000090: 7014 81bc 7309 62bc 6e21 7dbc 1901 7fbc
000000a0: fe33 7dbc 5bcb 77bc 4e56 8fbc c1d6 1abc
000000b0: 3347 b6bc ce37 cbbc 30a8 4cbc 4b46 70bc
000000c0: 3efd 84bc 553b 8dbc 3c85 d8bc 3e19 5ebc
000000d0: c8a3 12bc 984e 5fbc 49b0 b8bc e554 98bc
000000e0: f20f bcbc a7ef c8bc a1dc 86bc f0a2 dcbc
000000f0: a9d8 1fbc 035b 85bc 0918 d4bc dce8 b9bc
00000100: 7806 6dbc 7f75 c4bc ae39 8ebc 01b0 81bc
00000110: b834 babc 0bd4 51bc 44d8 74bc eadd 9cbc
00000120: 7219 32be 9a95 a4bb 52b2 353e b733 c5be
00000130: 7262 c33e a1c0 6bbc c663 9e3e 3718 8ebe
00000140: df40 b4be 4254 ecbd fa63 52bc cd83 43be
00000150: d8d3 ffbd 9053 b6be 9d7d 6fbf 0d26 6f3d
00000160: 917b bcbe fb36 3fbf 3afb 223c aece f33d
00000170: 9bca 5abe ed99 91bd 08aa 90be da89 34bf
00000180: 3990 273d 8e20 ce3e 2a0f 393d df81 16be
00000190: c924 98be 18bb 0a3f 4423 6cbe bb56 e3bd
000001a0: 2eee 50be a4ed 29bd 3d0b 533d b45b d1be
000001b0: 03e2 00be ca48 15be 6422 6b3e da6b d1bc
000001c0: 80ee 30be 3d7b c4be 4544 c93b 2073 89be
000001d0: 32ff a03e e695 9dbe 896d 01bf a161 0dbe
000001e0: 53ee 83be 390c b7be 010c 22bf b5ad 8abe
000001f0: 3dc1 b13e 3cd9 a8be ba21 6cbd 0414 e9be
00000200: 0507 0c3e d79b 6fbc 0414 e53d 031e 07bf
00000210: a628 b13a 4f44 45bf 198d 0fbe f2e3 47bd
00000220: 1cbd 17be 91fb 563e a45c 79bd 556a 30bd
00000230: ab6f 50be 3dfd 7fbb 5491 443e 52d8 b2be
00000240: effe 97bd 6c59 d0bd af08 20be 68e6 93bd
00000250: bebb 05be ace5 91bd 7b5d 48bb 6fd1 df3c
00000260: 1573 d9bd f8e9 aebd 7070 683c dd3b b43d
00000270: f287 9cbd 4642 8a3d 4d51 0e3e 30f4 c8bc
00000280: 53dc 98bd 9b77 1b3c 676c 38be 914c 103d
00000290: 7638 98bd 2832 18be 4999 e43c 2564 abbe
000002a0: 5ce9 28be 5262 50bd b515 80be 6be2 babd
000002b0: e045 1dbe 5ea0 093c 84a1 363e 3e61 703e
000002c0: 2ab0 ff3e 9f50 8d3d e374 ebbc 7907 86be
000002d0: de70 14be df47 d1bd 241f 9aba 62fc bdbd
000002e0: ff11 f7bd 507e 3d3c d3b2 393d b897 e53d
000002f0: dd92 813d 4315 12be 0ffd 6bbd d9c0 683d
00000300: bc16 003c 6e02 4dbe 02b1 1c3d 97f0 923c
00000310: 62ad 72be 10e7 8ebe 170a c3bd ee32 39bd
00000320: 0045 8f3c 7c3d a93c 81cd 433d c30e 89bd
00000330: 0db7 ab3c 91c2 113e 41aa 3aba 503c 6cbe
00000340: e9d3 48be 713d 8dbd 13c9 523b b5d4 2cbe
00000350: 496b 84bd 2bea 083e 2d4c 193e e764 51be
00000360: 5b06 263e 2d69 c33e 5837 5e3e 1531 20be
00000370: 22ab 26be fb96 d6bd cbe9 dfbd 660e 88bf
00000380: 722d bcbd ba7f c3be 9c34 72bf a21f fcbe
00000390: 3ffc ffbe c7e7 28bf 39de 07bf e712 78be
000003a0: bb69 a4bd a1c1 c0be 3062 803e 53e8 a03e
000003b0: 3638 6d3e 3b39 9ebd d70a 45bd 822b 9a3c
000003c0: f10f 82be c2f9 64bf 703a d4be 7a87 503e
000003d0: 7e11 443e de69 d63c 195d 0bbd 4ebb 3ebe
000003e0: 89bb 4abe ac9b 1dbe 287a 61bf d4fe 1dbe
000003f0: 6b52 34be 2ef8 643d e844 0a3e a87b 61be
-0.021137126 -0.0121283755 -0.012947256 -0.020973187 -0.015027868 -0.016580913 -0.017349485 -0.014295227
-0.018123657 -0.015180006 -0.011285716 -0.013813901 -0.023775697 -0.010807293 -0.023870142 -0.012293278
-0.018948669 -0.022222267 -0.015899245 -0.014981818 -0.020544587 -0.023203146 -0.020294106 -0.018463388
-0.018170934 -0.018443646 -0.019683566 -0.01873149 -0.016012482 -0.020243281 -0.013482226 -0.019848453
-0.022139486 -0.013689427 -0.00915939 -0.011191605 -0.015756816 -0.013796198 -0.015449865 -0.015564227
-0.01545429 -0.015124167 -0.017497208 -0.009450615 -0.022250747 -0.024806883 -0.012491271 -0.014665197
-0.016234037 -0.017240206 -0.026430719 -0.013555823 -0.008950181 -0.013629578 -0.022544997 -0.018595168
-0.022956822 -0.024528338 -0.016462626 -0.026933163 -0.009756246 -0.01627875 -0.025890367 -0.022694044
-0.014466874 -0.023981808 -0.017361488 -0.015830996 -0.022730216 -0.012806903 -0.01494414 -0.019148786
-0.17392519 -0.0050227167 0.17743805 -0.38516018 0.38161045 -0.014389188 0.30935496 -0.2775285
-0.35205743 -0.115395084 -0.012841219 -0.19093247 -0.12491578 -0.35610628 -0.93551046 0.058385897
-0.36813024 -0.7469327 0.009947592 0.119046554 -0.2136635 -0.07109437 -0.28254724 -0.70522845
0.040909026 0.40259212 0.045180477 -0.1469798 -0.29715565 0.5419173 -0.23060328 -0.11100527
-0.20403358 -0.041486397 0.05152439 -0.40890276 -0.12586217 -0.14578548 0.22962338 -0.025564123
-0.1727848 -0.38375273 0.0061421716 -0.26845646 0.314447 -0.30778426 -0.5055776 -0.13806774
-0.25767764 -0.35751513 -0.63299567 -0.27085653 0.34717742 -0.32978237 -0.05764935 -0.45523083
0.13674553 -0.014624557 0.11185458 -0.5278017 0.0013516142 -0.77057356 -0.14018668 -0.04880137
-0.14818233 0.20994402 -0.060879365 -0.043070156 -0.20355098 -0.0039060854 0.19196063 -0.34930664
-0.074216716 -0.10173306 -0.15628313 -0.07221681 -0.13059899 -0.071238846 -0.0030573297 0.027321545
-0.10617653 -0.0854072 0.014186963 0.088004805 -0.07643117 0.06750922 0.13898201 -0.0245305
-0.074638985 0.009488965 -0.18010102 0.03522927 -0.07432644 -0.14862883 0.027905123 -0.33474842
-0.1649527 -0.050875016 -0.2501656 -0.09125217 -0.15358686 0.008400051 0.17835051 0.23474595
0.4993909 0.06900143 -0.02874226 -0.26177576 -0.1449618 -0.102187864 -0.0011758548 -0.09276654
-0.12063979 0.01156576 0.045336556 0.11210579 0.0632684 -0.14265923 -0.057614382 0.05682454
0.00781792 -0.20020458 0.038254745 0.017936988 -0.23698953 -0.27910662 -0.09523409 -0.045214586
0.017488956 0.0206592 0.047803406 -0.06692269 0.020961309 0.14234377 -0.0007120707 -0.23069882
-0.19612087 -0.06896485 0.0032163307 -0.16878016 -0.064657755 0.13370578 0.14970465 -0.20448647
0.16213362 0.3816618 0.217008 -0.15643723 -0.1627622 -0.10478016 -0.10933264 -1.0629394
-0.091883555 -0.38183385 -0.94611526 -0.49242884 -0.49997136 -0.65978664 -0.5307346 -0.2422596
-0.08027979 -0.37647727 0.2507491 0.3142725 0.23165974 -0.077257596 -0.04810604 0.018819574
-0.25402787 -0.894436 -0.41450834 0.2036418 0.19147298 0.026173528 -0.03402433 -0.18626139
-0.19798101 -0.15391415 -0.8807702 -0.1542924 -0.17609565 0.055900745 0.13502848 -0.22019827

conv2.bias f4 [16]
00000000: 907d 87bc bdad 123b 72a4 a3be b398 1b3e
00000010: 019d d23d 63fd 7abe a18e 4abb 0ba9 0cbd
00000020: a5a3 11bd e5b0 10be 8811 82bd 0c11 113f
00000030: dbdc 923c d3aa 473e c8a6 3fbc c312 b0bd
-0.016539365 0.0022381388 -0.319614 0.15194969 0.10283852 -0.24510722 -0.0030907767 -0.0343409
-0.035556454 -0.1412998 -0.06351 0.56666636 0.017927578 0.19498758 -0.011697479 -0.085973285

conv3.weight f4 [32, 16, 3, 3]
00000000: 6025 953c 59b2 f1ba 1861 76bc 7dab bf3a
00000010: 77ee 05bc 509f ebbb 2f13 083c a023 51bb
00000020: e410 913a 3fbf 803d 3fe8 82be cad4 163e
00000030: 50a4 45be b524 973d 35b6 3cbd 21ec abbc
00000040: 27c3 18be 8d74 dbbd eb27 933d 389a 4dbd
00000050: d934 9a3d eaee 53be a304 43bd 4c6a 98bc
00000060: 938c f93c af3c 613d 9ea7 073e 1ed2 2c3d
00000070: d0fe b1be 675f 62be 1cad a3bd d974 bbbe
00000080: 2183 92be 4db2 08be 3c58 a6bd 8c31 0fbe
00000090: df00 273e ff56 ab3d b4b5 ce3c 18f4 9b3e
000000a0: 4063 c33e 4af4 573e 18d5 e63d 9899 ca3d
000000b0: 268d a33d 4a0b c13d 4c68 f2bd ae56 643d
000000c0: afa7 2fbe f812 eabd 312c 503e 7fb1 c6bc
000000d0: e7f8 d13e a453 463e b86d 7e3d c504 f8bd
000000e0: 628c 9c3e f072 fa3d ee09 04bf c35e 3fbe
000000f0: 1310 0c3e ca89 dc3d d02b de3e 6330 98be
00000100: 9adf bb3e fb6f 45be 332a c8bd 29b5 49bd
00000110: cd1a 03bd d94e 8cbd f75d d83d 7345 03bd
00000120: e849 b5bc c077 71bb 8ff6 0cbb e44e 84ba
00000130: 4c4d 8abb 409f 133c 146a 503c 7471 f73b
00000140: 8369 ba3b 738e f03e e8ea 873e 0da5 7e3e
00000150: c2a0 183f c40a b2bd 7f50 8b3c b088 093e
00000160: 3a25 8f3e 5630 75bd 997b 27bd 1bbb 0c3e
00000170: c8b9 6abd 470a 503d 59fc 9bbe 589c 523d
00000180: c2ff af3c 0765 ed39 cdcd 763e d6b7 093e
00000190: 65a9 77be b3c7 083c 8cd0 bcbe 5ddc debe
000001a0: 7779 f9bd 5547 553e d2c9 1fbe 4f81 b03c
000001b0: 2eb3 1d3e 1cb7 0fbe a475 813e be64 3d3e
000001c0: b18a 243d 1369 f3ba 6e9c 0d3b cc9e ad3d
000001d0: f5db d83d 55fa 21bd 5e5a 273c 42c4 703c
000001e0: ecf2 11be 6c4e 80be 13de 13be c50c 583e
000001f0: 509e ec39 192d df3d 6b8b 613b d81c ba3b
00000200: 067e a83b 4ad2 c9ba 2ba0 f83a f8dc f43b
00000210: ca65 e7ba 6c48 3cba 4e52 953b a8a3 2d3e
00000220: 2756 843e de89 593e 84d4 86bd 8fe2 10be
00000230: b3da 9cbd dd7a 48be 61b7 36be 827a a3bd
00000240: c6d2 a038 ed17 143a a216 d43a a800 2d3b
00000250: e54c 2d3c da3a 2a3c ce1f d539 48bb 5a3b
00000260: 47d2 063c cf42 07bd 6667 48be 764e d13d
00000270: 54a4 b53e 2dbf 723e f195 b53e 52d3 a1be
00000280: cd95 0f3e 8fc5 143f ea7d 00bb 253e 9a3c
00000290: 5477 56bd 1e8f 14bd e8bb 88bd 9740 aa3c
000002a0: aa69 0abe e162 d53d 1ca6 013e 14f1 b3bd
000002b0: 29f5 b53c 893c 943c 5716 e7be d38f 2b3d
000002c0: aca3 2fbe 7cea 62be 09c3 c9be 9c32 c33e
000002d0: 2d55 4bbe bc78 a1bd c224 d9bd 4887 e6be
000002e0: cfd4 fb3d 3bbd 343e 62ef f8be 255b 0dbe
000002f0: 0676 593e 4bd2 f83c 1b4d a93c 8cf2 f83d
00000300: d6ab b4bd 605b ac3c 9396 78bd 2223 4cbd
00000310: c9fc 443e 14b1 4ebe d5c2 5d3e 0b29 d7bd
00000320: bf93 d53d 0589 0e3e 2303 a8bd 9b55 26be
00000330: 8610 a239 df95 a7be 6415 193f 5ddb 0c3d
00000340: cfb4 c6bd 7b8e 60be 4603 eabd 8750 27be
00000350: e1c6 00bd bb6f 4bbe 32bf 16bc 3ffa 013e
00000360: d1c7 0b34 4e31 9631 faf1 1635 e833 b839
00000370: f473 253c 6f73 e63c 476f d53b 34d5 4a3c
00000380: 337f df3b c037 45bc 1dfc b93d 9975 98bd
00000390: f8b9 d03e 020d 383f f872 e93b 67d7 9c3d
000003a0: 050a 1ebe 50b7 573d 907c fabd a007 f7be
000003b0: 7c1a 9dbe 80bf 133b 65b1 d93e b845 843e
000003c0: 2a1f 77be dbaf adbe 53ab 62be 4b16 97be
000003d0: 89a4 83bb f87e d03d a035 313f fd02 b93d
000003e0: 1abb 9dbf c9bd c4bd 58dd 853e 9770 9fbd
000003f0: f22d debd e841 5e3c a3a2 abbc 7e9f 89bc
0.018206298 -0.0018439993 -0.015037797 0.0014623251 -0.00817453 -0.0071906224 0.008305355 -0.0031912103
0.0011067656 0.06286477 -0.25567815 0.1472961 -0.19300961 0.07380048 -0.046072204 -0.020986618
-0.14918195 -0.1071559 0.07185348 -0.050195903 0.07529611 -0.20696607 -0.047611844 -0.018605374
0.030462539 0.054989513 0.13247535 0.04219257 -0.3476472 -0.22106706 -0.07992002 -0.36612585
-0.28615668 -0.13349266 -0.08122298 -0.13983744 0.16308926 0.083662026 0.025233127 0.30459666
0.3816166 0.21089283 0.11271113 0.09892577 0.07985906 0.09425981 -0.11836299 0.055746727
-0.1715381 -0.11429399 0.20329358 -0.024254559 0.4101021 0.19367844 0.062116355 -0.12110285
0.30575854 0.12228954 -0.5157765 -0.18688492 0.13678007 0.10768469 0.433928 -0.29724416
0.36694032 -0.19280998 -0.09773674 -0.049245033 -0.03200798 -0.068509765 0.10564797 -0.032048654
-0.022129968 -0.0036845058 -0.0021509265 -0.0010094312 -0.0042206403 0.009010136 0.0127206035 0.0075513665
0.0056888475 0.4698368 0.26546407 0.2486765 0.59620297 -0.0869346 0.017006157 0.13431048
0.2795809 -0.05986055 -0.040889356 0.1374325 -0.05730608 0.05079105 -0.30465963 0.051418632
0.02148426 0.00045279434 0.24101944 0.13449034 -0.24185713 0.008348393 -0.3687786 -0.435275
-0.12181371 0.20827992 -0.15604332 0.021546034 0.15400383 -0.14034694 0.25285065 0.18495461
0.04017133 -0.0018570743 0.0021608132 0.08477554 0.105888285 -0.039545376 0.010214416 0.014695229
-0.14252824 -0.2505983 -0.14440183 0.21098621 0.0004513138 0.108972736 0.0034415375 0.005679708
0.0051419763 -0.0015397754 0.0018968632 0.0074726306 -0.0017654237 -0.00071824226 0.0045569306 0.16956961
0.2584698 0.21243998 -0.06583503 -0.14148925 -0.07658901 -0.19578119 -0.17843391 -0.07982351
7.668654e-05 0.0005649317 0.0016181062 0.0026398096 0.010577415 0.010390008 0.00040650222 0.0033375788
0.008228845 -0.033022698 -0.19570693 0.10220043 0.35476935 0.2370574 0.3546596 -0.31606537
0.14021988 0.5811395 -0.00196063 0.018828461 -0.052359894 -0.0362693 -0.06676465 0.020782752
-0.1351687 0.1041925 0.12661022 -0.087862164 0.022211628 0.018095272 -0.4513423 0.04188521
-0.1715228 -0.22159761 -0.39406613 0.3812455 -0.1985671 -0.078843564 -0.10602714 -0.45025086
0.122964494 0.1765031 -0.48620135 -0.138043 0.21236429 0.030373713 0.02066665 0.12155637
-0.088218376 0.021039665 -0.060690474 -0.049838193 0.19237055 -0.20184737 0.21656354 -0.10505875
0.10428571 0.13919456 -0.08203723 -0.16243593 0.0003091136 -0.3273153 0.59798265 0.03438889
-0.09702455 -0.21929352 -0.114264056 -0.16339312 -0.031439666 -0.1986684 -0.009200858 0.12693118
1.3018077e-07 4.37118e-09 5.6231477e-07 0.00035133888 0.010098446 0.028131215 0.0065135094 0.012379933
0.0068205833 -0.012037218 0.0908129 -0.07444305 0.40766883 0.7189485 0.007124301 0.07658272
-0.1543351 0.052665055 -0.1223079 -0.48248005 -0.30684268 0.0022544563 0.42518154 0.2583444
-0.24132982 -0.3392323 -0.22135668 -0.29509196 -0.004017417 0.10180467 0.6922245 0.09033773
-1.2322724 -0.09606511 0.26145434 -0.07785147 -0.10848607 0.013565518 -0.020951575 -0.016799685

conv3.bias f4 [32]
00000000: 1413 823c 46b0 283e 161c fcbd c1b1 1abc
00000010: fa39 8e3e 15aa ecbd 68cf cbbc 8ef8 e9bd
00000020: 603d 8c3e 3e86 9892 8331 09bd f7b4 123d
00000030: 3add e33d 04e7 e5be 5422 19be a369 2dbf
00000040: 8e42 bebd 6d2e 2c3f dc1a 33bb 99cf e9ba
00000050: 4bbf 69bd 391d b3ba d69f 8cbd dc3b 233d
00000060: e7ba d63e 98fd 49be 81b9 09b8 bbfe a93e
00000070: b980 683e 621e d0bd 95b5 4b3c 0983 e0ba
0.015878238 0.16473493 -0.123100445 -0.009441794 0.27778608 -0.11555878 -0.024879172 -0.11424361
0.27390575 -9.625642e-28 -0.033494484 0.035817113 0.1112618 -0.44902813 -0.14954501 -0.67739314
-0.09290038 0.6725834 -0.0027329242 -0.0017838358 -0.057067197 -0.0013665325 -0.06866424 0.03985201
0.4193947 -0.19725645 -3.283611e-05 0.33202156 0.22705354 -0.10162045 0.012433429 -0.0017128895

conv4.weight f4 [64, 32, 3, 3]
00000000: 549c ecbd 0700 b33d 2912 853d 82cc cbbc
00000010: 844a 013e 7870 203d 0f85 93bd a74d c4bd
00000020: 20ab ba3d 6f43 433e 2901 27be 6f66 263d
00000030: 268e 0a3e c84c a43d 5ef8 14bd 69f6 c93b
00000040: 04cf 31bd a2b9 a3bc 0d86 c7bb cf7d 9f3e
00000050: 93ec 80be 5f44 ca3d f605 4c3f 5e1a 88bd
00000060: 5ee2 f3bd 6eb3 ec3d a24a ef3d baa9 94bd
00000070: 354f 10bd bee4 91bd 46ce 8bbb 0d21 433d
00000080: 3e1d 80bd 3052 02bd 5a83 18bd 6695 77bc
00000090: bfce 993d 2d8e 783d 839d 393e be47 c43d
000000a0: 6ab4 c4bd 8604 28be 1e5a c53c 9916 dab9
000000b0: 5e83 07bd 45e2 6abe 6b21 e33b a0dd debd
000000c0: 0a83 47bd 7251 ec3d 395e 46be 8f0a 993c
000000d0: 6d8d 263e ec2d 9fbd 0dd3 373c 6a4b bf3d
000000e0: 167c 44bc facf c23a 76df 973d 8e73 773d
000000f0: 7fbe 1e3b 1b00 b43c b668 3c3c 9877 16bd
00000100: 3e4e d73e adb4 4d3e 1cef 2fbe 4d61 a33d
00000110: 30bf 6abe d6eb dc3c a40e ecbd c640 90bc
00000120: c6fe 0cbe fd38 513d f56a debd 49a3 3e3d
00000130: 05a3 41be ddbb c03d dcb4 91bc f371 1dbe
00000140: 0c96 0fbe 8dc7 9f12 ca46 0b14 a387 d013
00000150: 181b b313 c47d 0e14 0bd7 0514 2c85 1114
00000160: 39d3 0914 e3ff 2914 4386 e6bc 56a5 08bc
00000170: 223c 1a3d a168 b83c ed6a 473d 44cf b43d
00000180: fe3d 383c 4cfb 933c 127a 9abb 2d47 863d
00000190: 99fe 3c3e 251a 733d 0b08 153e ca00 c3bd
000001a0: 7f93 b53d 0fc8 b2bc 2d8b 61be 0995 a13d
000001b0: 283c 8fbd f8ca 963e c0a6 353d 1c1d eabb
000001c0: dcd7 5f3e a35c ebbd def9 63bc 0fa1 433c
000001d0: 36ba 8e3c fc99 b5bd 3b91 5a3c a63b 77bc
000001e0: 052c 52be 14cb b43c 64e8 2bbe e817 94bd
000001f0: 2b72 403c 609e 9f3c d9b1 993d a6d5 f6bb
00000200: 117c 80bd 2f30 183d 1ae8 da3d 6363 c23d
00000210: 572e 16bb 0ab7 9b3b aec7 b2bc 29cf 11bd
00000220: e802 2c3e 57e0 c8bb b1af 2f3c f228 9abd
00000230: ca6a 8e3d b41b 00be 0006 e43c 39eb 8a3d
00000240: b78b cebc 4861 7fbc a262 6b3e f9fd 8bbd
00000250: 1510 a53c 6fd0 90bc 8812 0f3d 165d e03d
00000260: bf1b 053e c2f7 8f3e 9ead 083e 7657 0e3e
00000270: 4aa4 053e ec1d 593d 5b3f 5d3d 38c5 bbbe
00000280: b24b d5bd fe16 9cbe 1f14 f503 a0fb 0e80
00000290: 0528 1b00 51d4 5909 2eb6 0d00 450d 2000
000002a0: 360a 2b80 8beb 3100 cc90 3b80 05c2 1c13
000002b0: b927 8f1c 0579 2f03 6b67 3500 b5d0 3322
000002c0: 7c08 1400 289c 3180 ec4d 250d d8ac 1180
000002d0: caa9 c03e a662 043e d401 3a3e 4f98 f2bd
000002e0: 9dc3 d6bd 089a 733e a464 b43b 2186 1b3d
000002f0: 727f 0bbc 87ce 2280 eddc 9e13 04e9 2780
00000300: dfec 3580 5784 c816 a626 3000 74db 1c00
00000310: 9ed6 3b80 9278 2280 97e4 f2bd 0e15 d6bc
00000320: e685 1a3e 1605 98bd 0f94 5d3d 9e72 783d
00000330: 3c24 083e 2b65 833d a043 413d e922 453e
00000340: 610b 183e 87c4 e93d ddff 79bd db08 bb3c
00000350: 0a98 63be fcfd d2bc c0fe 243e 663e 0b3e
00000360: 4d58 56be be07 72bd 9423 b83d 4f99 86be
00000370: 0ff1 afbe 9a5b 0ebe 8acb 2abd 4945 813c
00000380: 31b7 bcbc 58ed e43c f260 053e a3e8 653e
00000390: ded9 6cbe 6c31 f8bd 300f 7dbd a99b 513d
000003a0: 9a99 a0bb e3a1 3a3d 6dc2 2a80 6429 2c00
000003b0: 2147 2500 0d1b 2280 5582 2c00 9dbb 1080
000003c0: 239c 0e00 6d99 1e80 5378 0180 13f2 4e3e
000003d0: 25b4 d7bd d0e6 e63d 2126 9cbe 01dc 53be
000003e0: d331 19be 0f0f 453d 02ba 9f3c 4270 4f3e
000003f0: 15a5 293d 24a8 84bd 8bad 1abd a186 a8bd
-0.11553255 0.087402396 0.064976044 -0.02487779 0.12626082 0.03916976 -0.07203113 -0.095851235
0.09114671 0.19068693 -0.16309036 0.040625032 0.13530788 0.08022457 -0.036369674 0.0061634076
-0.043410316 -0.019985978 -0.006088978 0.31150672 -0.25180492 0.09876322 0.79696596 -0.06645654
-0.119084105 0.11557661 0.11684157 -0.07258935 -0.035231788 -0.07123707 -0.004266533 0.04763894
-0.062555775 -0.03181666 -0.03723464 -0.015111303 0.07510137 0.060682464 0.18126492 0.09583996
-0.09604724 -0.16407976 0.024090823 -0.00041597037 -0.033084266 -0.22937877 0.006931474 -0.10882115
-0.048708953 0.11538972 -0.1937188 0.018681793 0.16264887 -0.07772431 0.011219752 0.09340556
-0.011992475 0.0014863007 0.07415669 0.060412936 0.0024222431 0.021972707 0.011499574 -0.036735147
0.42051882 0.20088454 -0.17181057 0.07977543 -0.22924495 0.026967924 -0.1152623 -0.017609011
-0.13769063 0.05107974 -0.10860244 0.04654244 -0.18909843 0.09410832 -0.017786436 -0.153755
-0.14022082 1.0083504e-27 7.031667e-27 5.264033e-27 4.521267e-27 7.193971e-27 6.757194e-27 7.346893e-27
6.958389e-27 8.582784e-27 -0.028140193 -0.0083402 0.037655003 0.022510828 0.048685957 0.08828595
0.011245249 0.018064164 -0.004714259 0.065565445 0.18456496 0.059351105 0.1455385 -0.09521635
0.08866023 -0.021823911 -0.22025748 0.07889754 -0.06993896 0.29451728 0.04434848 -0.0071445834
0.21859688 -0.114922784 -0.013914553 0.011940255 0.017422777 -0.08867261 0.01334029 -0.015089905
-0.20524605 0.022069491 -0.16787869 -0.07231122 0.01174597 0.019484699 0.07504625 -0.007532793
-0.06273664 0.037155326 0.10688801 0.09491613 -0.0022915804 0.0047520446 -0.02182373 -0.035597954
0.16797984 -0.006130259 0.01072304 -0.07527341 0.06953962 -0.12510568 0.027834892 0.067831464
-0.025213106 -0.0155871585 0.22986844 -0.06835551 0.02014927 -0.017677514 0.034929782 0.10955255
0.12998866 0.28118712 0.1334748 0.13900551 0.13050953 0.05300705 0.0540155 -0.36673903
-0.10414828 -0.30486292 1.4404425e-36 -1.375963e-39 2.493915e-39 2.6220256e-33 1.259215e-39 2.943496e-39
-3.95259e-39 4.584436e-39 -5.470238e-39 1.9785627e-27 9.473214e-22 5.15668e-37 4.90438e-39 2.4369512e-18
1.839754e-39 -4.555958e-39 5.0938346e-31 -1.623208e-39 0.3762954 0.12928256 0.1816476 -0.11845457
-0.10486529 0.23789227 0.0055051614 0.037969712 -0.008514272 -3.196495e-39 4.0102657e-27 -3.665175e-39
-4.952255e-39 3.239526e-25 4.421968e-39 2.650119e-39 -5.495284e-39 -3.16566e-39 -0.11860006 -0.026133087
0.1509014 -0.07422845 0.054096278 0.060656182 0.13295072 0.06415781 0.047183633 0.19251598
0.1484809 0.11414438 -0.061035026 0.022831371 -0.22225967 -0.025755875 0.16112804 0.13598022
-0.20932122 -0.059089415 0.08991161 -0.2628884 -0.343636 -0.1390213 -0.041698016 0.015780108
-0.023036571 0.027945206 0.13025263 0.22452025 -0.23129985 -0.121188015 -0.061782062 0.05117384
-0.0049011232 0.045564543 -3.926838e-39 4.05561e-39 3.42343e-39 -3.132111e-39 4.087516e-39 -1.536671e-39
1.341708e-39 -2.810104e-39 -1.35e-40 0.20209531 -0.10532407 0.11274493 -0.3049784 -0.20689394
-0.14960413 0.048110064 0.019497875 0.20257667 0.0414172 -0.06477383 -0.03776316 -0.082288034

conv4.bias f4 [64]
00000000: d6b8 e5bd 23eb edbb 53ed 1dbf 80ba 12be
00000010: 6ff3 3b3e 9013 babe bf8d 52be 3348 22be
00000020: cc11 853e 7811 173f 2074 ffb6 8670 b2be
00000030: ce56 64bb 91c5 81bc d48d 8ebd 7281 acba
00000040: 4ee8 63bc b98c 033e 548a e2bd e760 2ebf
00000050: 9408 1ebe 39e8 bfbd 3935 c7bd c5bd 998a
00000060: b087 ddbb a199 1cbe ac6e e53c b065 8d3d
00000070: 9503 4ab5 e175 a185 c982 49ba 3867 67b0
00000080: e0ed 37be 3d11 66be e008 8ebe d07a 3fbe
00000090: 2fca 1fbf 10d3 12bf 5772 b6bd 179b 9c81
000000a0: 18b5 bfbe d0a7 d5bd da08 4bbe 33d0 23be
000000b0: 5308 923e bc60 5dba 9a2f f6bd fce8 5ab5
000000c0: 6dcc 7aba ce12 c4be 9df7 0e3f 68b6 213e
000000d0: 05c4 7a3e 6cc3 a23d 66d9 8eb5 9a55 3dbe
000000e0: 31fb 3cbc 3415 0dbe 6732 7abe aeb7 c385
000000f0: 93fd c4ae 7389 fabd 5d8b aabb 3a42 543b
-0.11216895 -0.0072606965 -0.61690253 -0.14328957 0.18354581 -0.3634305 -0.20561884 -0.15847854
0.2599014 0.5901103 -7.613111e-06 -0.34851474 -0.0034841779 -0.015841277 -0.06960645 -0.0013161136
-0.013910366 0.1284665 -0.1106154 -0.6811661 -0.1543296 -0.09370465 -0.09726948 -1.4804747e-32
-0.00676056 -0.1529298 0.028006874 0.06904161 -7.5256077e-07 -1.5183669e-35 -0.000768703 -8.4183993e-10
-0.17961836 -0.22467513 -0.27741146 -0.18699193 -0.6241788 -0.57353306 -0.08908527 -5.752789e-38
-0.3744285 -0.10432398 -0.19827595 -0.1599739 0.28521976 -0.00084448955 -0.12020798 -8.1550365e-07
-0.0009567205 -0.38295597 0.5584658 0.15792239 0.24488838 0.0794743 -1.0643096e-06 -0.18489686
-0.011534498 -0.1377762 -0.2443329 -1.8405185e-35 -8.958092e-11 -0.122332476 -0.0052046017 0.0032388107

conv_layers.0.weight f4 [8, 2, 5, 5]
00000000: 8910 2ebe d7e0 e5bd a558 d93e d542 89be
00000010: d8fb 66bd 05be 983e 7554 c3bd 204b 6f3d
00000020: aa0b f8be b276 1cbd 6000 7cbd 3c74 41be
00000030: 7eef 313e b0aa d5be f4ca de3d aaa6 85be
00000040: 3853 b6be 30ba a1bd 581e c4bc 9987 5b3e
00000050: 6758 e3bd 7237 9d3d c64e 0dbe 6b3e e43d
00000060: a22c 063e dfc8 5a3d ca69 36be 47d4 073f
00000070: 46b1 ba3c 80b7 10be 9bcc 8e3e 88b1 173e
00000080: a758 c5be 1877 46be f6fe 9cbb ea90 5e3e
00000090: 20ed 983c 6f06 933e d1cb 2dbd 25c4 4f3e
000000a0: 4b2e c03c f7ec dfbd 0fd0 02bd 1fa1 9e3d
000000b0: 8d02 02be 80fb 643c 06e9 c3bc ad72 91bc
000000c0: a456 8dbd f3d3 ecbd ace2 e0be 4cbf e9be
000000d0: 965a e53d a850 243c b340 913e cf3a 0dbe
000000e0: 38f7 19bd 3ca0 fabc 3ea5 603e 82d5 ecbe
000000f0: f7a8 ae3e 4b16 023c 36ad c03d 7e22 c43e
00000100: 15d3 f4be 2495 333d 60fb 83bd 75b0 233e
00000110: dd9c 2f3d 4d03 a03e c148 d6bd 43f8 65bb
00000120: 9a48 053d b4c7 8b3d 69f7 ad3d 65f9 debd
00000130: 743e 9e3e 12c6 133e 75b9 04bf fe80 893d
00000140: 751c 5ebd 17d3 2fbe 8d6d 923d 4357 52be
00000150: 902c bbbd 9209 f63d 0562 40be 9cc3 22be
00000160: b730 48bd 0047 a93e cb2d 0ebd b321 0cbe
00000170: 2ef8 133e 7f59 24be 39c8 1e3e c2a0 5bbe
00000180: 0bb9 dfbc 9f5a 6bbe a3d0 f03c d319 193e
00000190: 7d8b c8be e588 913e 70a9 08bf 22a9 e13e
000001a0: 7c1b 86be c408 32be 9b1c a5bd 8240 963d
000001b0: 568f 4d3e 2670 4d3d 2c30 92be 59a9 05be
000001c0: ff73 943d 833a 853d b719 17bd ca27 143e
000001d0: d30b 823e 7ff4 933e 2d8a fa3d e345 9ebe
000001e0: 131b f13d 90ac 283d 64ff 683e 4411 56bd
000001f0: 1544 30be 2c16 9abe 7db7 a13e 359f 0dbe
00000200: 0fc1 f73d 6d04 2a3d c0d7 7dbd e67b b13d
00000210: 8eab 3f3d 3a68 973e 620e c2bd 2f55 a0be
00000220: 67b3 8dbe cebf c0be 00f0 5f3e f544 53be
00000230: ea25 74be c6c5 5b3e 18d7 50be 6124 ecbe
00000240: c214 78be eebc b83c 4219 a4bc 30db 873e
00000250: 930c 90be 66f0 be3d f740 ea3d 4261 753d
00000260: cca9 ed3d 0214 6f3e 74c8 cbbe 902e 06be
00000270: abbe 593e 58bf fe3b b313 2f3d 6e53 8bbe
00000280: b5b8 b23d 8728 3ebe 7236 7d3e b9bc a7be
00000290: 08ab 073e eb05 e03e 5b14 abbd 3421 1cbe
000002a0: d923 34be 84bf 323d d392 2fbd fde3 1c3d
000002b0: 29cd 50be 9a3c cd3d 5b02 703e c6db c73d
000002c0: 0d0e 5ebd 972c 85be 819d ea3d ba6c 903e
000002d0: d0d3 1a3e c8b9 c63c 1cf2 5f3e 87ef 4ebd
000002e0: b922 713e b42d 99be c490 0b3f 0b90 e13e
000002f0: 73d3 063e e4df bdbc 94d2 fa3d 8e78 41be
00000300: ba21 b13c b2c9 cebe 0ff9 2d3e 5faf 89bd
00000310: bd77 ac3e ae9b b4be a59d 293e 554d 58be
00000320: 8d9e 003e 5949 3fbe 5efb 673e 7533 003d
00000330: 2e4e 463e 8b64 d03c f371 4abd 33e5 133f
00000340: 12b4 fd3d 743d 233e a57d 973d 6581 093e
00000350: 24be 12be bcaf 883e e596 46be 3c37 733e
00000360: c6e1 0d3e fc91 a7be a387 2ebe 330e 5c3c
00000370: 5c33 b73e fd7e 8d3d 9bac 943e e027 863d
00000380: 6b2c dabd 40ea 313e be02 033e 01e9 dabc
00000390: e896 743e 1201 d0bd 1d5a 7b3d 8897 a3be
000003a0: cd6d aabe 997b 983e 15b8 5a3d 2487 21bd
000003b0: e209 17be 9238 c83d 9fbc cdbd 3918 603e
000003c0: ab61 8ebe 8810 7ebd ef9c 673e 72fa 56be
000003d0: fcc6 acbe 3387 fe3d 486b 143d eedb f2be
000003e0: 91d1 683e 65b1 8ebe 5ab1 5d3e f924 56be
000003f0: 723a 273f c076 19bb eb98 c53e a621 5bbe
-0.16998495 -0.112245254 0.42450443 -0.268088 -0.05639252 0.29832473 -0.09537593 0.058421254
-0.484464 -0.038199134 -0.061523795 -0.18891996 0.17376515 -0.41731787 0.10878554 -0.26103717
-0.35610366 -0.078968406 -0.02394025 0.21438445 -0.11100846 0.07676591 -0.13799581 0.11144718
0.13102964 0.05341422 -0.17813793 0.53058285 0.022789609 -0.141325 0.27890477 0.14813817
-0.385442 -0.19381368 -0.004791136 0.21734968 0.018667758 0.28715846 -0.042430703 0.20289667
0.023459574 -0.10933869 -0.0319367 0.07745575 -0.12696286 0.013975978 -0.023914825 -0.017754877
-0.06901291 -0.115638636 -0.43922937 -0.4565376 0.111989185 0.010028996 0.28369674 -0.13791965
-0.03758928 -0.030593984 0.21938035 -0.46256644 0.34113285 0.007939885 0.09408037 0.38307565
-0.47817293 0.043843403 -0.0644443 0.15985282 0.042874206 0.31252518 -0.104630955 -0.0035090602
0.03253994 0.068252 0.08494455 -0.10887412 0.30907023 0.14431027 -0.51845485 0.067140564
-0.054226357 -0.17170368 0.071498014 -0.205411 -0.09139359 0.12013544 -0.18787391 -0.15894932
-0.048874583 0.3306198 -0.03471164 -0.1368473 0.14450142 -0.16049765 0.15506066 -0.21448043
-0.027309915 -0.22983788 0.02939636 0.14951257 -0.3916892 0.28424755 -0.5338354 0.4407435
-0.26192844 -0.17386156 -0.08062097 0.07336523 0.2007421 0.05015578 -0.28552377 -0.13052882
0.07248687 0.06505301 -0.036889758 0.14468303 0.25399646 0.28897473 0.12233386 -0.30912694
0.11772742 0.041180193 0.22753674 -0.05226256 -0.17213471 -0.3009504 0.31585303 -0.13830264
0.1209737 0.041508127 -0.061973333 0.0866621 0.046794467 0.29571706 -0.094753996 -0.3131499
-0.27675936 -0.37646335 0.21868896 -0.20631774 -0.23842588 0.21462163 -0.20394552 -0.46121505
-0.24226668 0.022551026 -0.020031575 0.26534414 -0.28134593 0.09323196 0.11438172 0.059907205
0.11604652 0.23347476 -0.3980137 -0.131037 0.2126414 0.007774275 0.042743396 -0.2721209
0.08726636 -0.18570147 0.247278 -0.3276117 0.13248837 0.43754515 -0.08353492 -0.15247041
-0.175918 0.043639675 -0.04286463 0.038303364 -0.20390762 0.100213245 0.23438399 0.09758715
-0.05421262 -0.26010582 0.11455823 0.28207952 0.15119863 0.02425851 0.21869701 -0.0505214
0.23548402 -0.2991768 0.5451777 0.4405521 0.13166599 -0.023178048 0.12247196 -0.18893644
0.021622527 -0.40388256 0.1698954 -0.067229025 0.33685103 -0.35275024 0.16564043 -0.2112325
0.12560482 -0.18680324 0.22654483 0.031299073 0.1936576 0.025438568 -0.049425077 0.57771605
0.12387861 0.15941411 0.07397012 0.13428266 -0.14330345 0.26696575 -0.19393499 0.23751539
0.13855657 -0.32728565 -0.17043929 0.01343112 0.35781372 0.06908987 0.29037938 0.06550574
-0.10653003 0.17374516 0.12794015 -0.026722433 0.23885691 -0.10156454 0.061365236 -0.31951547
-0.33286896 0.29781798 0.05339821 -0.03943552 -0.14749864 0.09776415 -0.10045742 0.2188424
-0.2780889 -0.062027484 0.22618459 -0.20993975 -0.33745563 0.12428131 0.036235124 -0.47433418
0.22736193 -0.27869716 0.21649686 -0.20912541 0.65323555 -0.0023416728 0.3859323 -0.21399555

conv_layers.0.bias f4 [8]
00000000: 1dff a8bc d974 efbf 2bde a3bc 426a 1bbd
00000010: f822 45bd f76b e6bc 53ad f8be ef74 93bc
-0.02062946 -1.8707534 -0.020003399 -0.037943132 -0.048129052 -0.028127654 -0.48569736 -0.018000094

conv_layers.3.weight f4 [16, 8, 3, 3]
00000000: c427 adbc 18b6 46bc ba20 54bc f6cf abbc
00000010: 7237 76bc b2d4 87bc 8220 8ebc 8736 6abc
00000020: 1078 94bc 8fb5 78bc b9e7 38bc b353 62bc
00000030: 40c5 c2bc 1211 31bc 518b c3bc bf69 49bc
00000040: 3d3a 9bbc 790b b6bc 223f 82bc 4d76 75bc
00000050: 1f4d a8bc 8614 bebc d33f a6bc 8840 97bc
00000060: 36db 94bc 2117 97bc 6e3f a1bc c872 99bc
00000070: 9c2c 83bc 3dd5 a5bc 8ee4 5cbc 3999 a2bc
00000080: de5d b5bc 9e49 60bc 4411 16bc fe5c 37bc
00000090: 7014 81bc 7309 62bc 6e21 7dbc 1901 7fbc
000000a0: fe33 7dbc 5bcb 77bc 4e56 8fbc c1d6 1abc
000000b0: 3347 b6bc ce37 cbbc 30a8 4cbc 4b46 70bc
000000c0: 3efd 84bc 553b 8dbc 3c85 d8bc 3e19 5ebc
000000d0: c8a3 12bc 984e 5fbc 49b0 b8bc e554 98bc
000000e0: f20f bcbc a7ef c8bc a1dc 86bc f0a2 dcbc
000000f0: a9d8 1fbc 035b 85bc 0918 d4bc dce8 b9bc
00000100: 7806 6dbc 7f75 c4bc ae39 8ebc 01b0 81bc
00000110: b834 babc 0bd4 51bc 44d8 74bc eadd 9cbc
00000120: 7219 32be 9a95 a4bb 52b2 353e b733 c5be
00000130: 7262 c33e a1c0 6bbc c663 9e3e 3718 8ebe
00000140: df40 b4be 4254 ecbd fa63 52bc cd83 43be
00000150: d8d3 ffbd 9053 b6be 9d7d 6fbf 0d26 6f3d
00000160: 917b bcbe fb36 3fbf 3afb 223c aece f33d
00000170: 9bca 5abe ed99 91bd 08aa 90be da89 34bf
00000180: 3990 273d 8e20 ce3e 2a0f 393d df81 16be
00000190: c924 98be 18bb 0a3f 4423 6cbe bb56 e3bd
000001a0: 2eee 50be a4ed 29bd 3d0b 533d b45b d1be
000001b0: 03e2 00be ca48 15be 6422 6b3e da6b d1bc
000001c0: 80ee 30be 3d7b c4be 4544 c93b 2073 89be
000001d0: 32ff a03e e695 9dbe 896d 01bf a161 0dbe
000001e0: 53ee 83be 390c b7be 010c 22bf b5ad 8abe
000001f0: 3dc1 b13e 3cd9 a8be ba21 6cbd 0414 e9be
00000200: 0507 0c3e d79b 6fbc 0414 e53d 031e 07bf
00000210: a628 b13a 4f44 45bf 198d 0fbe f2e3 47bd
00000220: 1cbd 17be 91fb 563e a45c 79bd 556a 30bd
00000230: ab6f 50be 3dfd 7fbb 5491 443e 52d8 b2be
00000240: effe 97bd 6c59 d0bd af08 20be 68e6 93bd
00000250: bebb 05be ace5 91bd 7b5d 48bb 6fd1 df3c
00000260: 1573 d9bd f8e9 aebd 7070 683c dd3b b43d
00000270: f287 9cbd 4642 8a3d 4d51 0e3e 30f4 c8bc
00000280: 53dc 98bd 9b77 1b3c 676c 38be 914c 103d
00000290: 7638 98bd 2832 18be 4999 e43c 2564 abbe
000002a0: 5ce9 28be 5262 50bd b515 80be 6be2 babd
000002b0: e045 1dbe 5ea0 093c 84a1 363e 3e61 703e
000002c0: 2ab0 ff3e 9f50 8d3d e374 ebbc 7907 86be
000002d0: de70 14be df47 d1bd 241f 9aba 62fc bdbd
000002e0: ff11 f7bd 507e 3d3c d3b2 393d b897 e53d
000002f0: dd92 813d 4315 12be 0ffd 6bbd d9c0 683d
00000300: bc16 003c 6e02 4dbe 02b1 1c3d 97f0 923c
00000310: 62ad 72be 10e7 8ebe 170a c3bd ee32 39bd
00000320: 0045 8f3c 7c3d a93c 81cd 433d c30e 89bd
00000330: 0db7 ab3c 91c2 113e 41aa 3aba 503c 6cbe
00000340: e9d3 48be 713d 8dbd 13c9 523b b5d4 2cbe
00000350: 496b 84bd 2bea 083e 2d4c 193e e764 51be
00000360: 5b06 263e 2d69 c33e 5837 5e3e 1531 20be
00000370: 22ab 26be fb96 d6bd cbe9 dfbd 660e 88bf
00000380: 722d bcbd ba7f c3be 9c34 72bf a21f fcbe
00000390: 3ffc ffbe c7e7 28bf 39de 07bf e712 78be
000003a0: bb69 a4bd a1c1 c0be 3062 803e 53e8 a03e
000003b0: 3638 6d3e 3b39 9ebd d70a 45bd 822b 9a3c
000003c0: f10f 82be c2f9 64bf 703a d4be 7a87 503e
000003d0: 7e11 443e de69 d63c 195d 0bbd 4ebb 3ebe
000003e0: 89bb 4abe ac9b 1dbe 287a 61bf d4fe 1dbe
000003f0: 6b52 34be 2ef8 643d e844 0a3e a87b 61be
-0.021137126 -0.0121283755 -0.012947256 -0.020973187 -0.015027868 -0.016580913 -0.017349485 -0.014295227
-0.018123657 -0.015180006 -0.011285716 -0.013813901 -0.023775697 -0.010807293 -0.023870142 -0.012293278
-0.018948669 -0.022222267 -0.015899245 -0.014981818 -0.020544587 -0.023203146 -0.020294106 -0.018463388
-0.018170934 -0.018443646 -0.019683566 -0.01873149 -0.016012482 -0.020243281 -0.013482226 -0.019848453
-0.022139486 -0.013689427 -0.00915939 -0.011191605 -0.015756816 -0.013796198 -0.015449865 -0.015564227
-0.01545429 -0.015124167 -0.017497208 -0.009450615 -0.022250747 -0.024806883 -0.012491271 -0.014665197
-0.016234037 -0.017240206 -0.026430719 -0.013555823 -0.008950181 -0.013629578 -0.022544997 -0.018595168
-0.022956822 -0.024528338 -0.016462626 -0.026933163 -0.009756246 -0.01627875 -0.025890367 -0.022694044
-0.014466874 -0.023981808 -0.017361488 -0.015830996 -0.022730216 -0.012806903 -0.01494414 -0.019148786
-0.17392519 -0.0050227167 0.17743805 -0.38516018 0.38161045 -0.014389188 0.30935496 -0.2775285
-0.35205743 -0.115395084 -0.012841219 -0.19093247 -0.12491578 -0.35610628 -0.93551046 0.058385897
-0.36813024 -0.7469327 0.009947592 0.119046554 -0.2136635 -0.07109437 -0.28254724 -0.70522845
0.040909026 0.40259212 0.045180477 -0.1469798 -0.29715565 0.5419173 -0.23060328 -0.11100527
-0.20403358 -0.041486397 0.05152439 -0.40890276 -0.12586217 -0.14578548 0.22962338 -0.025564123
-0.1727848 -0.38375273 0.0061421716 -0.26845646 0.314447 -0.30778426 -0.5055776 -0.13806774
-0.25767764 -0.35751513 -0.63299567 -0.27085653 0.34717742 -0.32978237 -0.05764935 -0.45523083
0.13674553 -0.014624557 0.11185458 -0.5278017 0.0013516142 -0.77057356 -0.14018668 -0.04880137
-0.14818233 0.20994402 -0.060879365 -0.043070156 -0.20355098 -0.0039060854 0.19196063 -0.34930664
-0.074216716 -0.10173306 -0.15628313 -0.07221681 -0.13059899 -0.071238846 -0.0030573297 0.027321545
-0.10617653 -0.0854072 0.014186963 0.088004805 -0.07643117 0.06750922 0.13898201 -0.0245305
-0.074638985 0.009488965 -0.18010102 0.03522927 -0.07432644 -0.14862883 0.027905123 -0.33474842
-0.1649527 -0.050875016 -0.2501656 -0.09125217 -0.15358686 0.008400051 0.17835051 0.23474595
0.4993909 0.06900143 -0.02874226 -0.26177576 -0.1449618 -0.102187864 -0.0011758548 -0.09276654
-0.12063979 0.01156576 0.045336556 0.11210579 0.0632684 -0.14265923 -0.057614382 0.05682454
0.00781792 -0.20020458 0.038254745 0.017936988 -0.23698953 -0.27910662 -0.09523409 -0.045214586
0.017488956 0.0206592 0.047803406 -0.06692269 0.020961309 0.14234377 -0.0007120707 -0.23069882
-0.19612087 -0.06896485 0.0032163307 -0.16878016 -0.064657755 0.13370578 0.14970465 -0.20448647
0.16213362 0.3816618 0.217008 -0.15643723 -0.1627622 -0.10478016 -0.10933264 -1.0629394
-0.091883555 -0.38183385 -0.94611526 -0.49242884 -0.49997136 -0.65978664 -0.5307346 -0.2422596
-0.08027979 -0.37647727 0.2507491 0.3142725 0.23165974 -0.077257596 -0.04810604 0.018819574
-0.25402787 -0.894436 -0.41450834 0.2036418 0.19147298 0.026173528 -0.03402433 -0.18626139
-0.19798101 -0.15391415 -0.8807702 -0.1542924 -0.17609565 0.055900745 0.13502848 -0.22019827

conv_layers.3.bias f4 [16]
00000000: 907d 87bc bdad 123b 72a4 a3be b398 1b3e
00000010: 019d d23d 63fd 7abe a18e 4abb 0ba9 0cbd
00000020: a5a3 11bd e5b0 10be 8811 82bd 0c11 113f
00000030: dbdc 923c d3aa 473e c8a6 3fbc c312 b0bd
-0.016539365 0.0022381388 -0.319614 0.15194969 0.10283852 -0.24510722 -0.0030907767 -0.0343409
-0.035556454 -0.1412998 -0.06351 0.56666636 0.017927578 0.19498758 -0.011697479 -0.085973285

conv_layers.6.weight f4 [32, 16, 3, 3]
00000000: 6025 953c 59b2 f1ba 1861 76bc 7dab bf3a
00000010: 77ee 05bc 509f ebbb 2f13 083c a023 51bb
00000020: e410 913a 3fbf 803d 3fe8 82be cad4 163e
00000030: 50a4 45be b524 973d 35b6 3cbd 21ec abbc
00000040: 27c3 18be 8d74 dbbd eb27 933d 389a 4dbd
00000050: d934 9a3d eaee 53be a304 43bd 4c6a 98bc
00000060: 938c f93c af3c 613d 9ea7 073e 1ed2 2c3d
00000070: d0fe b1be 675f 62be 1cad a3bd d974 bbbe
00000080: 2183 92be 4db2 08be 3c58 a6bd 8c31 0fbe
00000090: df00 273e ff56 ab3d b4b5 ce3c 18f4 9b3e
000000a0: 4063 c33e 4af4 573e 18d5 e63d 9899 ca3d
000000b0: 268d a33d 4a0b c13d 4c68 f2bd ae56 643d
000000c0: afa7 2fbe f812 eabd 312c 503e 7fb1 c6bc
000000d0: e7f8 d13e a453 463e b86d 7e3d c504 f8bd
000000e0: 628c 9c3e f072 fa3d ee09 04bf c35e 3fbe
000000f0: 1310 0c3e ca89 dc3d d02b de3e 6330 98be
00000100: 9adf bb3e fb6f 45be 332a c8bd 29b5 49bd
00000110: cd1a 03bd d94e 8cbd f75d d83d 7345 03bd
00000120: e849 b5bc c077 71bb 8ff6 0cbb e44e 84ba
00000130: 4c4d 8abb 409f 133c 146a 503c 7471 f73b
00000140: 8369 ba3b 738e f03e e8ea 873e 0da5 7e3e
00000150: c2a0 183f c40a b2bd 7f50 8b3c b088 093e
00000160: 3a25 8f3e 5630 75bd 997b 27bd 1bbb 0c3e
00000170: c8b9 6abd 470a 503d 59fc 9bbe 589c 523d
00000180: c2ff af3c 0765 ed39 cdcd 763e d6b7 093e
00000190: 65a9 77be b3c7 083c 8cd0 bcbe 5ddc debe
000001a0: 7779 f9bd 5547 553e d2c9 1fbe 4f81 b03c
000001b0: 2eb3 1d3e 1cb7 0fbe a475 813e be64 3d3e
000001c0: b18a 243d 1369 f3ba 6e9c 0d3b cc9e ad3d
000001d0: f5db d83d 55fa 21bd 5e5a 273c 42c4 703c
000001e0: ecf2 11be 6c4e 80be 13de 13be c50c 583e
000001f0: 509e ec39 192d df3d 6b8b 613b d81c ba3b
00000200: 067e a83b 4ad2 c9ba 2ba0 f83a f8dc f43b
00000210: ca65 e7ba 6c48 3cba 4e52 953b a8a3 2d3e
00000220: 2756 843e de89 593e 84d4 86bd 8fe2 10be
00000230: b3da 9cbd dd7a 48be 61b7 36be 827a a3bd
00000240: c6d2 a038 ed17 143a a216 d43a a800 2d3b
00000250: e54c 2d3c da3a 2a3c ce1f d539 48bb 5a3b
00000260: 47d2 063c cf42 07bd 6667 48be 764e d13d
00000270: 54a4 b53e 2dbf 723e f195 b53e 52d3 a1be
00000280: cd95 0f3e 8fc5 143f ea7d 00bb 253e 9a3c
00000290: 5477 56bd 1e8f 14bd e8bb 88bd 9740 aa3c
000002a0: aa69 0abe e162 d53d 1ca6 013e 14f1 b3bd
000002b0: 29f5 b53c 893c 943c 5716 e7be d38f 2b3d
000002c0: aca3 2fbe 7cea 62be 09c3 c9be 9c32 c33e
000002d0: 2d55 4bbe bc78 a1bd c224 d9bd 4887 e6be
000002e0: cfd4 fb3d 3bbd 343e 62ef f8be 255b 0dbe
000002f0: 0676 593e 4bd2 f83c 1b4d a93c 8cf2 f83d
00000300: d6ab b4bd 605b ac3c 9396 78bd 2223 4cbd
00000310: c9fc 443e 14b1 4ebe d5c2 5d3e 0b29 d7bd
00000320: bf93 d53d 0589 0e3e 2303 a8bd 9b55 26be
00000330: 8610 a239 df95 a7be 6415 193f 5ddb 0c3d
00000340: cfb4 c6bd 7b8e 60be 4603 eabd 8750 27be
00000350: e1c6 00bd bb6f 4bbe 32bf 16bc 3ffa 013e
00000360: d1c7 0b34 4e31 9631 faf1 1635 e833 b839
00000370: f473 253c 6f73 e63c 476f d53b 34d5 4a3c
00000380: 337f df3b c037 45bc 1dfc b93d 9975 98bd
00000390: f8b9 d03e 020d 383f f872 e93b 67d7 9c3d
000003a0: 050a 1ebe 50b7 573d 907c fabd a007 f7be
000003b0: 7c1a 9dbe 80bf 133b 65b1 d93e b845 843e
000003c0: 2a1f 77be dbaf adbe 53ab 62be 4b16 97be
000003d0: 89a4 83bb f87e d03d a035 313f fd02 b93d
000003e0: 1abb 9dbf c9bd c4bd 58dd 853e 9770 9fbd
000003f0: f22d debd e841 5e3c a3a2 abbc 7e9f 89bc
0.018206298 -0.0018439993 -0.015037797 0.0014623251 -0.00817453 -0.0071906224 0.008305355 -0.0031912103
0.0011067656 0.06286477 -0.25567815 0.1472961 -0.19300961 0.07380048 -0.046072204 -0.020986618
-0.14918195 -0.1071559 0.07185348 -0.050195903 0.07529611 -0.20696607 -0.047611844 -0.018605374
0.030462539 0.054989513 0.13247535 0.04219257 -0.3476472 -0.22106706 -0.07992002 -0.36612585
-0.28615668 -0.13349266 -0.08122298 -0.13983744 0.16308926 0.083662026 0.025233127 0.30459666
0.3816166 0.21089283 0.11271113 0.09892577 0.07985906 0.09425981 -0.11836299 0.055746727
-0.1715381 -0.11429399 0.20329358 -0.024254559 0.4101021 0.19367844 0.062116355 -0.12110285
0.30575854 0.12228954 -0.5157765 -0.18688492 0.13678007 0.10768469 0.433928 -0.29724416
0.36694032 -0.19280998 -0.09773674 -0.049245033 -0.03200798 -0.068509765 0.10564797 -0.032048654
-0.022129968 -0.0036845058 -0.0021509265 -0.0010094312 -0.0042206403 0.009010136 0.0127206035 0.0075513665
0.0056888475 0.4698368 0.26546407 0.2486765 0.59620297 -0.0869346 0.017006157 0.13431048
0.2795809 -0.05986055 -0.040889356 0.1374325 -0.05730608 0.05079105 -0.30465963 0.051418632
0.02148426 0.00045279434 0.24101944 0.13449034 -0.24185713 0.008348393 -0.3687786 -0.435275
-0.12181371 0.20827992 -0.15604332 0.021546034 0.15400383 -0.14034694 0.25285065 0.18495461
0.04017133 -0.0018570743 0.0021608132 0.08477554 0.105888285 -0.039545376 0.010214416 0.014695229
-0.14252824 -0.2505983 -0.14440183 0.21098621 0.0004513138 0.108972736 0.0034415375 0.005679708
0.0051419763 -0.0015397754 0.0018968632 0.0074726306 -0.0017654237 -0.00071824226 0.0045569306 0.16956961
0.2584698 0.21243998 -0.06583503 -0.14148925 -0.07658901 -0.19578119 -0.17843391 -0.07982351
7.668654e-05 0.0005649317 0.0016181062 0.0026398096 0.010577415 0.010390008 0.00040650222 0.0033375788
0.008228845 -0.033022698 -0.19570693 0.10220043 0.35476935 0.2370574 0.3546596 -0.31606537
0.14021988 0.5811395 -0.00196063 0.018828461 -0.052359894 -0.0362693 -0.06676465 0.020782752
-0.1351687 0.1041925 0.12661022 -0.087862164 0.022211628 0.018095272 -0.4513423 0.04188521
-0.1715228 -0.22159761 -0.39406613 0.3812455 -0.1985671 -0.078843564 -0.10602714 -0.45025086
0.122964494 0.1765031 -0.48620135 -0.138043 0.21236429 0.030373713 0.02066665 0.12155637
-0.088218376 0.021039665 -0.060690474 -0.049838193 0.19237055 -0.20184737 0.21656354 -0.10505875
0.10428571 0.13919456 -0.08203723 -0.16243593 0.0003091136 -0.3273153 0.59798265 0.03438889
-0.09702455 -0.21929352 -0.114264056 -0.16339312 -0.031439666 -0.1986684 -0.009200858 0.12693118
1.3018077e-07 4.37118e-09 5.6231477e-07 0.00035133888 0.010098446 0.028131215 0.0065135094 0.012379933
0.0068205833 -0.012037218 0.0908129 -0.07444305 0.40766883 0.7189485 0.007124301 0.07658272
-0.1543351 0.052665055 -0.1223079 -0.48248005 -0.30684268 0.0022544563 0.42518154 0.2583444
-0.24132982 -0.3392323 -0.22135668 -0.29509196 -0.004017417 0.10180467 0.6922245 0.09033773
-1.2322724 -0.09606511 0.26145434 -0.07785147 -0.10848607 0.013565518 -0.020951575 -0.016799685

conv_layers.6.bias f4 [32]
00000000: 1413 823c 46b0 283e 161c fcbd c1b1 1abc
00000010: fa39 8e3e 15aa ecbd 68cf cbbc 8ef8 e9bd
00000020: 603d 8c3e 3e86 9892 8331 09bd f7b4 123d
00000030: 3add e33d 04e7 e5be 5422 19be a369 2dbf
00000040: 8e42 bebd 6d2e 2c3f dc1a 33bb 99cf e9ba
00000050: 4bbf 69bd 391d b3ba d69f 8cbd dc3b 233d
00000060: e7ba d63e 98fd 49be 81b9 09b8 bbfe a93e
00000070: b980 683e 621e d0bd 95b5 4b3c 0983 e0ba
0.015878238 0.16473493 -0.123100445 -0.009441794 0.27778608 -0.11555878 -0.024879172 -0.11424361
0.27390575 -9.625642e-28 -0.033494484 0.035817113 0.1112618 -0.44902813 -0.14954501 -0.67739314
-0.09290038 0.6725834 -0.0027329242 -0.0017838358 -0.057067197 -0.0013665325 -0.06866424 0.03985201
0.4193947 -0.19725645 -3.283611e-05 0.33202156 0.22705354 -0.10162045 0.012433429 -0.0017128895
