comp_model_params_ep_9.pth (torch, 478355 bytes, 20 tensors)

conv1.weight f4 [8, 2, 5, 5]
00000000: 86ca 27be 025b cabd bfca d43e 762d 88be
00000010: 77d3 6fbd 6ac8 963e 2c5e b7bd f131 6f3d
00000020: 6e70 eebe 9e42 05bd be89 8abd 820d 4fbe
00000030: ba6a 353e df8b dbbe 34d0 d43d 18e5 7fbe
00000040: 3273 aebe 4da4 9abd 2519 b8bc 871d 603e
00000050: 88d8 f3bd d9fc 8e3d 7cfe 0cbe 2fe1 e53d
00000060: e0a8 013e 4f01 563d 27e6 2ebe 304d 033f
00000070: 3381 923c a481 0cbe 3dde 8f3e 208b 213e
00000080: 2ccc bbbe e2bf 43be 84d1 97ba caf5 593e
00000090: 4965 4e3c 5c4a 8f3e a694 f2bc f7eb 473e
000000a0: 119c 533c dca6 dbbd 5bfa 10bd e3ab 893d
000000b0: 70f8 fabd 6a9b af3c dfa0 febc 8d15 23bc
000000c0: ef80 9fbd 3e6b e5bd 082f d9be fec3 eabe
000000d0: 9b9f e53d a701 983c 7dc1 8c3e 9336 0ebe
000000e0: 4b0a 35bd e9dd c5bc 24ab 583e 1288 e9be
000000f0: 1d04 a83e 97ba 693c e217 b23d d74e c33e
00000100: fef8 edbe bc42 4b3d 19a0 8bbd 3ffd 213e
00000110: b880 1b3d 2cb5 9b3e e3d8 eebd 25d9 f2bb
00000120: 2c31 233d 134f 9a3d 20fd bd3d 78c7 dcbd
00000130: d9b3 943e c864 093e a18a 04bf d014 793d
00000140: e2e8 81bd 807d 26be 4864 ae3d 856a 51be
00000150: e051 c0bd dde3 eb3d a8be 46be 8e36 1abe
00000160: 62fe 56bd 2277 a43e 44c1 e9bc f8a1 febd
00000170: 0dd8 053e 2732 24be b44d 1c3e 7228 58be
00000180: bc24 edbc c0ed 62be bb63 e43c 6774 163e
00000190: afe4 c8be 18e1 8c3e 214b 03bf 820e d83e
000001a0: 56e3 83be 04b4 32be 152c 9bbd c13c 983d
000001b0: e5d7 543e 8df0 593d 647c 8ebe 6bc0 02be
000001c0: 5f43 873d 3ca8 7e3d ac17 39bd 38a2 153e
000001d0: 2853 7e3e 071e 983e a488 fb3d bc5c 99be
000001e0: 1055 f63d 1386 4e3d 5033 623e 5b0c 70bd
000001f0: ed5c 3fbe c1ab 99be 951e 9d3e 3b06 edbd
00000200: 8692 f33d e5ca f33c cd42 89bd 78ab a43d
00000210: 16d1 023d 67cd 963e f0bd a6bd c5ee 99be
00000220: 135f 8abe 568c bebe 56fa 5a3e 59ed 5ebe
00000230: 88cd 79be 1773 543e 1330 4bbe 25e4 e8be
00000240: b36f 6ebe 9186 cf3c 40a7 98bc 671c 7f3e
00000250: 8e3e 8cbe 020e a63d 944e d03d 651e 4e3d
00000260: d51a de3d f03c 5e3e 2755 c7be e817 efbd
00000270: 71f2 5b3e f55b 133c d2dd 1b3d ae43 8dbe
00000280: fe8d a83d cd59 37be 58c5 7d3e 8dda a3be
00000290: e397 083e 41ef da3e f463 babd e4d4 1ebe
000002a0: 1805 35be 05ab 333d 18e7 27bd fa59 153d
000002b0: dc2f 56be ef07 c33d bd42 5c3e 1d10 b93d
000002c0: 74e6 38bd ed14 7ebe fac0 cf3d b179 893e
000002d0: a0f3 1d3e bf05 fa3c b16a 653e c7bb 3ebd
000002e0: a42e 6f3e 8d7e 97be 64ec 083f fa53 d93e
000002f0: 6905 ff3d a396 dbbb ecf3 ff3d 29f2 40be
00000300: 3970 d73c 0716 ccbe 142a 283e 55c7 9dbd
00000310: b597 ad3e 3262 acbe e808 233e 7258 61be
00000320: cd03 f53d a876 43be ec12 7e3e f1ce 053d
00000330: eab2 443e a1ed 143d 0353 47bd 5cb5 0d3f
00000340: 9d98 073e 40ef 153e 1eb7 803d 2dbc 0e3e
00000350: d7ab 02be bba5 7d3e 17d5 30be 04d3 743e
00000360: e624 0d3e 7980 a8be 4f65 23be daa2 e93b
00000370: 89ec b63e 6b14 7f3d 8177 8e3e 8ede 803d
00000380: 532f debd ec1f 213e 84fe f43d 3896 f9bc
00000390: 916b 773e 363b c1bd 116d 933d 2916 a3be
000003a0: 6e1a a8be b1f2 983e 57a4 573d a7b6 51bd
000003b0: e267 10be 87ea c53d 4f8a d6bd 04b0 593e
000003c0: 0632 8dbe 9ef3 87bd ac91 583e 79d1 51be
000003d0: 40e6 a9be 1ea5 f63d caf5 0b3d b380 ebbe
000003e0: 4a55 6a3e 24d3 8dbe 02fd 583e bc9f 3dbe
000003f0: 2e7b 243f 4e62 c5bb 9d9a c13e 0a16 53be
-0.1638585 -0.098806396 0.41560933 -0.26597184 -0.058551278 0.2944978 -0.08953509 0.058397237
-0.46570152 -0.032534234 -0.067645535 -0.20219997 0.17716494 -0.4288015 0.10391274 -0.24989736
-0.34072262 -0.07550869 -0.022472927 0.21886264 -0.119065344 0.069818206 -0.13768953 0.11224591
0.12662077 0.05224734 -0.17079984 0.51289654 0.017883873 -0.13721329 0.28099242 0.15775728
-0.36679208 -0.19116166 -0.0011582826 0.21285167 0.01259739 0.2798642 -0.029611897 0.19523607
0.012915627 -0.10725185 -0.035395008 0.06722238 -0.12254417 0.021436412 -0.031082569 -0.009953869
-0.07788264 -0.112020954 -0.42418694 -0.45852655 0.11212083 0.018555475 0.2749137 -0.13888006
-0.04419927 -0.024153667 0.21159035 -0.45611626 0.32815638 0.014265678 0.086959615 0.38146088
-0.46479028 0.04962419 -0.068176456 0.15819262 0.037964553 0.3041166 -0.116624616 -0.0074111396
0.039841816 0.075346135 0.092767954 -0.10780233 0.29043463 0.13417351 -0.5177403 0.060810864
-0.06343247 -0.16258812 0.08515221 -0.2045079 -0.093906164 0.11518071 -0.19408667 -0.15059873
-0.052488692 0.3212214 -0.028534539 -0.12433237 0.13070698 -0.16034757 0.15264016 -0.21109179
-0.02894818 -0.22161007 0.027879586 0.14692841 -0.39236972 0.27515483 -0.5128651 0.4219857
-0.2575938 -0.17451483 -0.07576767 0.07433463 0.20785482 0.053207923 -0.27829278 -0.12768714
0.06604647 0.06217216 -0.04518859 0.14612663 0.24836409 0.2971041 0.122819215 -0.29953563
0.12027943 0.050420832 0.22089887 -0.058605533 -0.18687792 -0.3001385 0.30687395 -0.11573454
0.118931815 0.029759834 -0.06702194 0.080405176 0.03193768 0.29453585 -0.081416965 -0.3006498
-0.2702566 -0.37216443 0.21384558 -0.21770228 -0.2439481 0.20747028 -0.19842558 -0.4548656
-0.23284797 0.025332721 -0.018634439 0.24913178 -0.27391475 0.081081405 0.101712376 0.050321955
0.108449616 0.21702933 -0.38932154 -0.11674482 0.21479203 0.008994092 0.03805334 -0.27590698
0.08230208 -0.1790535 0.24782312 -0.3200268 0.1333919 0.4276066 -0.09101096 -0.15510899
-0.17677724 0.04386427 -0.040991873 0.03646276 -0.20916694 0.095229976 0.21509834 0.090362765
-0.045141652 -0.2481267 0.10144229 0.26850656 0.15424967 0.030520318 0.22403981 -0.046565797
0.23357636 -0.29588738 0.53485703 0.42446882 0.12452204 -0.006701307 0.12497696 -0.18842377
0.02629863 -0.39860556 0.16422302 -0.07704035 0.33904806 -0.33668667 0.15921366 -0.22006395
0.119636156 -0.19088233 0.24811906 0.032668058 0.19208875 0.036359433 -0.04866315 0.5535486
0.13241811 0.14642048 0.06284927 0.13938971 -0.12760864 0.24770252 -0.17268787 0.23908621
0.13783607 -0.32910517 -0.15956615 0.007130009 0.35727337 0.06227533 0.2782555 0.06292449
-0.1084887 0.15734833 0.119626075 -0.030467138 0.24162127 -0.09435122 0.07198537 -0.31852844
-0.32832664 0.2987266 0.05264696 -0.05119958 -0.14102128 0.09663873 -0.10475599 0.21258551
-0.27577227 -0.06638263 0.2114932 -0.20490064 -0.3318348 0.12043212 0.03416995 -0.45996627
0.22884098 -0.2770015 0.21190265 -0.18517965 0.6425046 -0.0060236817 0.37813273 -0.20613876

conv1.bias f4 [8]
00000000: 6762 9abc 10d7 efbf 01f7 91bc 5ba8 14bd
00000010: e8c8 44bd 0a3a d7bc 61ed f5be bf1a 8abc
-0.01884575 -1.8737507 -0.017817976 -0.03629337 -0.04804316 -0.026272792 -0.48032668 -0.016858457

conv2.weight f4 [16, 8, 3, 3]
00000000: 4932 b3bc 7e50 4cbc dada 5bbc 655f b1bc
00000010: 2bd5 7cbc 97f6 8bbc 211b 94bc 30ff 71bc
00000020: 6b09 9bbc 0994 87bc b5b5 4cbc 05ad 75bc
00000030: 7234 d4bc 55c1 3ebc 42cd d6bc 04bf 64bc
00000040: 86f5 b3bc ac8b d6bc 7631 86bc 19d1 7bbc
00000050: 2abb adbc 001e c4bc 2e15 abbc 8019 9cbc
00000060: 96e4 99bc 45fe 9bbc 1171 a7bc c7a1 9dbc
00000070: 76cd 86bc a98e aabc 0f3d 63bc 9c43 a7bc
00000080: 3dab bbbc 947a 66bc 5282 1abc 297f 3cbc
00000090: aef2 85bc e882 6abc 90b3 83bc 70ca 83bc
000000a0: e0ca 82bc 730d 81bc 128d 96bc 5386 22bc
000000b0: 55fe bebc 7dc5 d0bc b6b2 51bc 7d24 77bc
000000c0: 2a26 89bc cacc 91bc a15e dfbc 37e9 65bc
000000d0: c35b 17bc 9508 67bc a987 c0bc 9cf5 9dbc
000000e0: 5a63 c4bc d615 d2bc 3cf1 8bbc 56ba e7bc
000000f0: 0e66 28bc 2948 8bbc b765 dfbc 9733 c0bc
00000100: 81eb 74bc b652 cbbc b42d 92bc 4849 85bc
00000110: 73f2 bfbc adc2 58bc ec85 7dbc a18c a2bc
00000120: 2605 34be c7c9 17ba 25fe 2f3e 9772 c1be
00000130: d56f b83e 0e7b d1bc 7363 993e 060b 8ebe
00000140: 2647 afbe b36c edbd acfe 16bc 0474 21be
00000150: fd7e dabd f197 c2be 5eef 67bf 218d a03d
00000160: 15d8 bfbe 384b 36bf 9a0b 9b3a c979 043e
00000170: aa1a 4bbe 9cc6 72bd 35a8 84be 583d 35bf
00000180: e436 093d 0c92 c83e cae4 213d 7b0e 24be
00000190: 93fb 92be 7367 0a3f ad8c 64be 7735 b7bd
000001a0: e27e 47be 49e3 7fbd 8934 1e3d 3082 d8be
000001b0: 9343 0abe 9b2b 09be 9654 6b3e 5334 80bd
000001c0: 8435 20be b78f c3be ffce 17bb 9c56 80be
000001d0: 764d 9f3e b737 a9be 5df0 04bf 7bd2 03be
000001e0: 4b30 81be fa02 c2be 61aa 28bf bbda 8ebe
000001f0: 06b4 a83e ba42 b2be c1ee 47bd e110 efbe
00000200: fa67 ff3d 63b4 08bd 1ca5 f23d 0b49 01bf
00000210: 4aea 333c dd94 40bf bfc9 08be c7c9 44bd
00000220: 4fc1 16be 432d 5b3e 02ae 5ebd be46 0dbd
00000230: f486 48be ffc3 f63b 9822 413e 4da4 babe
00000240: 7f23 a6bd 5e76 c8bd 6053 25be d299 a0bd
00000250: b947 00be 9834 8ebd 8031 8abb c526 8a3c
00000260: ca5e d1bd 534e 48bd 14be fd3c 5fc3 883d
00000270: 092c 7abd 9fa7 963d 2196 f73d ae5c 80bc
00000280: dfd2 abbd 86b1 34bc 4f87 26be 51c8 ff3c
00000290: c552 7ebd 1e0d 11be 685a f33c db9e adbe
000002a0: e64c 2abe d919 39bd 5c5f 7cbe df41 bbbd
000002b0: 8159 11be 988c 123c 5e76 383e 9542 683e
000002c0: fbfa fc3e 1369 6b3d 182e 0ebd 8cc9 85be
000002d0: 7c9d 03be 7430 e8bd 77e5 9dbc 91f3 ddbd
000002e0: 9b39 09be 9c16 0abb ca5c 5d3d 75e5 fe3d
000002f0: 7717 433d 2c87 10be 2c46 3cbd 7029 433d
00000300: 3414 a63b 54cb 46be e144 343d d73b db3c
00000310: 231a 71be 613f 7dbe b07f d3bd ea03 27bd
00000320: 67cb eabb 5cc7 803c 511a 503d ad39 a8bd
00000330: aa68 443c 8e5d 103e 87d0 b1bb 59f0 66be
00000340: c9b5 3bbe b686 99bd c61d 573c aa1f 1ebe
00000350: c7f5 82bd ec08 ec3d 7632 1b3e 47f9 60be
00000360: f494 1f3e 649f ba3e e1db 5f3e fc8a 16be
00000370: 1091 21be 772b d6bd 673a f8bd c36d 87bf
00000380: 7ec4 d2bd a0ac c9be e71b 6cbf c3db f6be
00000390: 84a6 05bf 430a 2dbf 66bf 07bf 8237 78be
000003a0: b545 cebd a47a bdbe 56fb 723e f701 9a3e
000003b0: 9324 653e cc4c ccbd 8ee0 4abd e6c9 6a3b
000003c0: bce5 86be eda2 5fbf 1835 d4be cb2c 463e
000003d0: a5fd 393e 760a cb3c df6c bdbc c73b 48be
000003e0: eae2 53be 90d8 1bbe 60a9 5bbf c4dc 2abe
000003f0: a501 36be 4df3 5c3d 24fc 033e fae1 46be
-0.021874564 -0.012470363 -0.0134188775 -0.021651933 -0.015431683 -0.017085357 -0.018079342 -0.014770314
-0.01892539 -0.01655008 -0.012494494 -0.014994864 -0.025903914 -0.011642774 -0.026220921 -0.013961557
-0.02196766 -0.026189648 -0.016381007 -0.015369677 -0.02120741 -0.023940086 -0.020884123 -0.019055128
-0.018785756 -0.019042144 -0.020439656 -0.01924218 -0.016455393 -0.020819979 -0.013869538 -0.02041798
-0.022908801 -0.014067311 -0.009430485 -0.011504927 -0.01635107 -0.014313437 -0.016076833 -0.01608774
-0.015965879 -0.015753483 -0.018377814 -0.009919721 -0.023314634 -0.025484795 -0.012798956 -0.015084383
-0.01674183 -0.017797846 -0.027266802 -0.0140326535 -0.009238186 -0.014101167 -0.023502188 -0.019282155
-0.023973156 -0.025645178 -0.017082803 -0.028287094 -0.010278238 -0.017002182 -0.027270181 -0.0234621
-0.014948727 -0.024819713 -0.017844059 -0.016270295 -0.023431038 -0.013230008 -0.015473824 -0.019842448
-0.17580089 -0.000579026 0.17186792 -0.37782738 0.3602282 -0.025571372 0.29958686 -0.27742785
-0.3423397 -0.11592998 -0.009215992 -0.15766913 -0.10668752 -0.38006547 -0.9059962 0.07839418
-0.37469545 -0.71208525 0.0011829019 0.12937082 -0.1983439 -0.05927144 -0.25909582 -0.7079673
0.033499613 0.39173925 0.03952483 -0.16021149 -0.2870756 0.540641 -0.22319289 -0.089457445
-0.19481996 -0.062472615 0.03862432 -0.42286825 -0.1350234 -0.1339554 0.22981486 -0.0625998
-0.15645415 -0.38195583 -0.002316415 -0.25066078 0.31113786 -0.3305032 -0.51929265 -0.1287326
-0.25232157 -0.37892896 -0.6588498 -0.27901253 0.32949847 -0.34816533 -0.048811678 -0.46692565
0.12471004 -0.033375155 0.11847898 -0.5050208 0.010981152 -0.7522715 -0.1335821 -0.048043992
-0.14722179 0.21403985 -0.054365166 -0.034491293 -0.1958273 0.007530689 0.18860853 -0.36453477
-0.08112239 -0.09788202 -0.16145086 -0.07841839 -0.1252736 -0.06943625 -0.0042173266 0.01686419
-0.10223158 -0.04890282 0.030974425 0.06677889 -0.06107715 0.0735619 0.12089182 -0.015669193
-0.0838983 -0.011028653 -0.16262554 0.031223448 -0.062090654 -0.1416516 0.029706195 -0.3391026
-0.16630897 -0.045190666 -0.24645752 -0.09143423 -0.141943 0.008944653 0.18013903 0.22681649
0.49410233 0.057473253 -0.034711927 -0.2613033 -0.12853044 -0.11337367 -0.019274456 -0.10837472
-0.13400881 -0.0021070605 0.05404357 0.12446109 0.0476298 -0.14114064 -0.04596536 0.04764694
0.0050683264 -0.19413501 0.044011 0.026761932 -0.23545127 -0.24731208 -0.10327089 -0.040775217
-0.0071653607 0.015720062 0.050806347 -0.08214126 0.0119878445 0.14098188 -0.0054264697 -0.22552623
-0.18331064 -0.07496397 0.013129657 -0.15441766 -0.063945346 0.11525139 0.15155968 -0.21970092
0.15584165 0.3644973 0.21861221 -0.14701456 -0.15777993 -0.10457509 -0.12120514 -1.0580372
-0.10291384 -0.39389515 -0.92230076 -0.4821454 -0.5220721 -0.67593783 -0.53026426 -0.24239925
-0.10071889 -0.3700763 0.2372869 0.30079624 0.22377233 -0.09975585 -0.04953056 0.0035825907
-0.26347148 -0.8735798 -0.41446757 0.19353025 0.18163164 0.024785262 -0.023123203 -0.19554053
-0.2069203 -0.15219331 -0.8580532 -0.16685778 -0.17774065 0.053942967 0.12889153 -0.1942214

conv2.bias f4 [16]
00000000: 19e3 8abc b711 e8b9 ef4a 9ebe 4a65 173e
00000010: 37c5 c13d 6d2f 6cbe 3dfc 3bbb c423 5cbd
00000020: b35e 5ebd 5965 1abe 0bf4 71bd 3814 0b3f
00000030: a0bd 52bb 98b6 3c3e e857 c1bc 3370 9abd
-0.016953992 -0.00044263687 -0.30916545 0.14784732 0.09461444 -0.23064966 -0.0028684281 -0.053745046
-0.05428953 -0.15077724 -0.059070628 0.54327726 -0.0032156482 0.18429029 -0.023601487 -0.075409316

conv3.weight f4 [32, 16, 3, 3]
00000000: 9c1a 993c c201 f8ba d69b 7abc 12dc c33a
00000010: e073 09bc e6c8 f0bb 038a 0c3c 161e 59bb
00000020: a18b 953a 712b 763d 187d 81be e46a f23d
00000030: 0dfe 5dbe 1db6 903d e24d 74bd 3cbe 33bd
00000040: bd27 23be fc79 1fbe fabd 7a3d 072f 66bd
00000050: c2fe 9d3d 82b2 41be b3b7 c4bd 8e8b 45bd
00000060: f553 9f3c 4eb7 3d3d 0f90 df3d 3681 273d
00000070: 6ece b3be 71d9 5ebe 5261 c9bd d645 bbbe
00000080: 01bd 92be 60ac 0bbe ced3 b0bd 4792 0cbe
00000090: a2f1 1a3e d581 a33d 9f4e df3c ed0c 9b3e
000000a0: e4ee c03e 6d2d 563e a4bb da3d 62eb cb3d
000000b0: aa02 a33d bbae a13d 5bb2 e9bd 93e3 6e3d
000000c0: 98dc 36be ed59 ffbd 407a 593e cce0 eabc
000000d0: 5649 c33e 435b 3e3e d399 723d 80be d2bd
000000e0: b0d3 8c3e 0dc2 083e ff07 fbbe 6503 48be
000000f0: 3ffd 003e 3d4a d33d fed6 e13e 14b1 9abe
00000100: f116 c03e 3df3 4bbe bbad b3bd d55e cfbc
00000110: b6c7 57bd 3607 63bd 2d79 d93d 2931 36bd
00000120: 2a92 d7bc f3c5 89bb 0ea0 1abb 40f1 9aba
00000130: c115 a0bb dbca 263c f7e5 883c 1c3a 1c3c
00000140: c05e df3b 9d12 ee3e 8904 8b3e cde1 683e
00000150: 7fba 103f 8b98 a1bd c20e 693c 8893 ba3d
00000160: 22e9 8c3e 8fd5 83bd fe1c 30bd acd0 053e
00000170: a260 88bd de64 1e3d 6c12 9abe c25e 493d
00000180: 3a22 033d db96 a8bc cf8c 5f3e 6c38 0a3e
00000190: 9433 6cbe b229 3939 0b24 b1be 36d6 d5be
000001a0: b4e0 fdbd aa82 543e 342e 17be fa54 c43c
000001b0: 5825 283e f874 0dbe 50a7 643e e4cc 303e
000001c0: a693 863d e4fa 8a3c df3e 063d e559 bb3d
000001d0: 2c50 a73d 638f 01bd cc77 d13c 8304 5d3b
000001e0: d3b7 10be e6bd 7bbe 633c 11be 29ef 433e
000001f0: ef23 583b 5d43 b33d fc3b d03b 5f45 143c
00000200: 439f 0c3c 9a36 7cbb 7129 653b 3504 5c3c
00000210: 079d f8bb 0361 f9ba d0d2 1e3c 0aa9 293e
00000220: bf15 843e 9cd7 5e3e 4e6d 8bbd b397 0ebe
00000230: f72f 92bd 24db 47be 1be2 38be 474a a2bd
00000240: 23c2 cc3a 5730 c33b 484a 8a3b e35b 723b
00000250: 7555 3a3c ac62 2f3c 5dd6 003a 59f5 693b
00000260: 673e 0b3c c044 3cbd 331c 2cbe ee0b c43d
00000270: 62fa b33e 1800 7d3e d637 af3e 54d5 9ebe
00000280: b735 d53d 1607 183f eb41 33bc 27a4 6d3b
00000290: 3c31 10bd 7e69 c9bc af61 b0bd 3918 ee3c
000002a0: 7b07 b8bd bc2d e33d af07 cd3d 33d1 cfbd
000002b0: d009 3d3c d3db 5a3c c231 e5be 5e07 db3c
000002c0: 82e4 39be 2696 68be ca67 c6be 3dbc ba3e
000002d0: 6b96 4abe 84cb bebd d048 f9bd 8922 e9be
000002e0: d896 f13d ccbb 2e3e 804d fcbe a760 15be
000002f0: bc25 563e bed6 eb3c 3509 103d f787 0a3e
00000300: 99de d2bd 0977 a33b 0c9a b2bd c241 23bd
00000310: 626c 303e 3cae 53be 62b3 493e 147d bcbd
00000320: 4fef dc3d c7c0 0e3e 0d3c d4bd 5c98 24be
00000330: 071d 8f3c 13bd adbe b7a2 123f 39ce 343d
00000340: 0d17 bfbd a2b9 62be d594 e6bd a423 1bbe
00000350: 0eb6 0ebc e69e 5cbe 8114 f9bc 3366 ae3d
00000360: 4a53 9f3c 94ce 6c3c 947c bf3c f735 193d
00000370: 30ab ae3c 01bb 253d a5fb 1c3d 4ea0 ed3c
00000380: a2b2 2e3c d93d 17bc 67a5 723d e6af 2fbd
00000390: 891a ca3e f4bf 3a3f 7477 4f3b 5b8b 8e3d
000003a0: e515 33be a35f 2e3d 47fa 03be 29a8 01bf
000003b0: 51f2 8abe 29b9 1e3b 6a82 d73e e158 843e
000003c0: 03e8 73be 43a0 a9be 7dd8 63be 4eae 9ebe
000003d0: 1568 6ebc 627c e03d 2ad6 2e3f c969 af3d
000003e0: 32ba 99bf 4a15 c9bd 2b5f 843e 9cf4 6fbd
000003f0: 36c8 b7bd 731a 823c 2074 d0bc 6abe 983b
0.018689446 -0.0018921422 -0.015295943 0.0014942905 -0.008389443 -0.0073481677 0.008577826 -0.0033129505
0.001140941 0.060100023 -0.2529075 0.11836794 -0.21678944 0.07065985 -0.059644587 -0.043882594
-0.15933128 -0.15573877 0.061216332 -0.056197193 0.07714607 -0.18915752 -0.0960535 -0.048228793
0.019449214 0.04631739 0.10916149 0.04089471 -0.3511843 -0.21762635 -0.098330155 -0.36576718
-0.28659824 -0.13639975 -0.086341485 -0.13727675 0.15131238 0.07983748 0.02725917 0.302833
0.3768226 0.20915766 0.10680321 0.09957005 0.079594925 0.07894655 -0.11410972 0.0583225
-0.17857587 -0.12468324 0.21238041 -0.028671645 0.38141888 0.18589501 0.05922873 -0.10290241
0.27505255 0.13355274 -0.49029538 -0.19532545 0.12596606 0.10316894 0.4410934 -0.30213225
0.37517503 -0.19917007 -0.08773371 -0.025313774 -0.052680694 -0.0554268 0.106188156 -0.044480477
-0.026314814 -0.0042045056 -0.0023593935 -0.0011821166 -0.004885406 0.0101802 0.016711218 0.009535339
0.006816715 0.46498576 0.27151898 0.22742386 0.5653457 -0.078904234 0.01422471 0.091101706
0.27521616 -0.064372174 -0.0429964 0.13067883 -0.06659056 0.038670413 -0.3009218 0.049162634
0.032015063 -0.020579746 0.21831058 0.13498086 -0.2306655 0.00017658508 -0.3459781 -0.41764992
-0.12396374 0.2075297 -0.14763719 0.023966301 0.16420496 -0.13814151 0.2232945 0.1726566
0.065711305 0.016965337 0.032774802 0.091480054 0.081695884 -0.031630885 0.025569819 0.0033724613
-0.14132623 -0.2458416 -0.14183192 0.19134201 0.0032980402 0.08753083 0.006354807 0.0090497425
0.008582893 -0.0038484694 0.0034967328 0.013428737 -0.0075870785 -0.0019026104 0.009693816 0.1656839
0.2579784 0.21761936 -0.068079576 -0.13925056 -0.07138055 -0.1951719 -0.18055002 -0.079243235
0.0015621822 0.0059566903 0.004220281 0.0036981038 0.011372914 0.010704678 0.0004914755 0.0035699217
0.008498765 -0.045964003 -0.16807632 0.09572588 0.35151964 0.24707067 0.34222287 -0.3102213
0.10410636 0.5938581 -0.010941009 0.0036261172 -0.035203204 -0.024586435 -0.08612382 0.029064285
-0.08985802 0.110927075 0.10011231 -0.101473235 0.011537984 0.013358074 -0.44764525 0.026736911
-0.18153575 -0.22713527 -0.3875106 0.3647174 -0.19783942 -0.09316161 -0.12172091 -0.4553416
0.11796349 0.17063826 -0.49277878 -0.14587651 0.20912832 0.02878892 0.03516503 0.13528429
-0.102963634 0.0049885553 -0.08720788 -0.039857633 0.17228845 -0.20671934 0.19697335 -0.09203544
0.10787832 0.13940726 -0.10363016 -0.16073745 0.017469896 -0.33933315 0.57279533 0.04414198
-0.093305685 -0.22141126 -0.11258856 -0.15150315 -0.008710397 -0.2154499 -0.030405285 0.08515587
0.019448895 0.014453549 0.023374833 0.03740498 0.021321863 0.040461544 0.038325924 0.029007103
0.010662707 -0.009231054 0.05923977 -0.04289236 0.3947337 0.7294915 0.0031656893 0.06960174
-0.17488821 0.042571675 -0.12888442 -0.5064722 -0.27137998 0.002421925 0.42091686 0.2584906
-0.23818974 -0.33130082 -0.22250552 -0.3099236 -0.014551182 0.10961224 0.6829554 0.08565099
-1.2009947 -0.09818514 0.25853857 -0.058582887 -0.08973734 0.015881753 -0.025445998 0.004661371

conv3.bias f4 [32]
00000000: 1dc8 933c 60fe 1a3e a34a f8bd 87a6 9abc
00000010: 1f18 873e 34b1 f4bd bdef 24bd 5ee0 e1bd
00000020: ff7e 873e 68f6 48a1 4cdf 2fbd ec60 0f3d
00000030: c6ee e23d a9de e2be 7f89 18be a125 27bf
00000040: b336 c4bd 836c 283f bd45 0bbd 6845 71bc
00000050: 832b 5fbd 07ef 62bc 95dc 8fbd e26c 243d
00000060: dcc8 d03e baee 4ebe 6b78 04bc 6f5c a93e
00000070: 84ac 633e 5870 cfbd 1118 a63b cebf 8dbc
0.018039757 0.15136099 -0.12123611 -0.018878235 0.2638559 -0.11947861 -0.040267695 -0.11029123
0.26464078 -6.808875e-19 -0.042937562 0.03500454 0.11080699 -0.443105 -0.148962 -0.6529179
-0.095807455 0.65790576 -0.034002054 -0.01472602 -0.054484855 -0.013850934 -0.070244946 0.0401429
0.40778244 -0.20208254 -0.0080853505 0.33078334 0.22233778 -0.1012885 0.005068787 -0.017303374

conv4.weight f4 [64, 32, 3, 3]
00000000: a18f d6bd b157 a33d 016a 9f3d 07b9 19bd
00000010: bcdc bf3d 68f8 4f3c 92db cfbd 1665 debd
00000020: e5b8 8c3d 1e87 2a3e fa27 0fbe 9caa 163d
00000030: a507 ff3d 928e b53d dc97 4cbd f613 123c
00000040: 9f0a 0dbc 82fb 9ebc 40a6 81bc ef98 9f3e
00000050: b9ef 69be c4cd af3d 0c3f 4a3f f561 92bd
00000060: 4bec e6bd 6f5e 003e 28d6 f63d becd cfbc
00000070: 25bc c1bc a780 00bd 900e 3fbc 96ef 983c
00000080: db75 2abd 2a23 a4bb 43c5 eabb db08 c0bb
00000090: 5347 973d 1096 7c3d 3407 383e b63a a23d
000000a0: 5c42 b7bd fcb5 37be c063 af3c 1397 3bbc
000000b0: 74e5 b4bc 8430 68be 9fd8 353c c545 fabd
000000c0: 1a33 52bd c343 df3d f3be 59be e51f 813c
000000d0: 49e9 2e3e 3d93 c9bd 1393 553c cb54 993d
000000e0: 2e2a 4b3b 11e9 823c f1ed 623d 85b4 803d
000000f0: 3a6a 03bc f53f 4b3c 6de7 f93c 9241 37bb
00000100: dc80 d93e ec7e 533e dc1a 02be cc98 3b3d
00000110: 3f83 5abe d26a 693d b7ac e2bd 1ef9 193c
00000120: d781 fbbd 4f90 6b3d d322 e2bd e73c 0d3d
00000130: 27e6 53be cb14 ac3d d133 01bd ef45 25be
00000140: 9dcc 19be d4d4 0604 93cc b103 3dfc ee03
00000150: 025f 2104 bb7f b603 3195 d903 8d37 5704
00000160: 3b0d ff03 446c 2404 5b0a d7bc f02b 22bd
00000170: 5cae 943c 58bc 06bc 7415 e93c 7b6a 983d
00000180: 5d8b 06bc 21c2 1c3b 05fd e53b c411 7c3d
00000190: d6b0 333e 7443 5a3d 19a7 193e 696f debd
000001a0: 6d9e aa3d 4872 98bc 11a9 5ebe 84ac 653d
000001b0: b1b6 89bd a694 973e e59f 203d 89a7 f9bc
000001c0: b47c 403e ca02 0ebe e223 babc 2edf f5ba
000001d0: bcbe 243c 3701 b0bd 90e5 083c 8d3b dfbb
000001e0: 98f2 50be 10b5 413c 9c34 22be c844 cdbd
000001f0: ac0a babb 4e96 ce3c b00e 9a3d 7d7f 72ba
00000200: 0c7f 4abd 52d5 343d c655 b13d b135 da3d
00000210: 437e 8da8 55a1 1200 8e26 02bc 1e07 44bd
00000220: b20b 223e 99b2 fcbc ff7e 71ba ddc4 b8bd
00000230: e65a 253d 9eeb ecbd b669 0e3c ce7e 843d
00000240: c396 35bc 8de3 dfba 4a68 743e 48c2 c2bd
00000250: 478c 453c 8e18 22bd f9d5 a6ba db33 913d
00000260: 39ed f13d f68f 8f3e b413 fb3d 034f 103e
00000270: 53c2 ae3d 065c 983c bf43 f03c 2c6b bfbe
00000280: 0bed c1bd 324a 91be 5b9e 0330 9ae1 722d
00000290: 20ef 2d2d 4d41 3432 3707 2d27 5bcd 2b29
000002a0: 360a 2b80 8beb 3100 be49 1d00 8156 8035
000002b0: c6e6 1338 cb54 7c2f 0a1a 8029 7da9 3c39
000002c0: 47e5 0b27 75dc df2b ed60 7933 01e7 972b
000002d0: f308 c13e c00e d63d ca42 463e c1b8 edbd
000002e0: 10ab b1bd 7a00 483e 5a72 0b3c 2ab1 e83b
000002f0: dbb9 2abc b8cf 5a2d cad5 9635 152d 1928
00000300: b7b9 521b 375f 7836 f342 381a 8e67 0221
00000310: 53b2 d52b 841c 5620 92a3 ffbd 5495 99bc
00000320: 59ef 0a3e 8ac7 c7bd 8980 583d 8ed3 1b3d
00000330: c43b 053e 4a47 2a3d 33b7 593d 37bc 333e
00000340: 0fc4 123e a3f0 ed3d de36 76bd adc0 e73c
00000350: d0df 65be de55 e2bc 0b91 183e 77ed f93d
00000360: af4f 67be 75b7 73bd 13a4 933d f8ec 83be
00000370: e26e 9ebe b84e f2bd 5c12 25bd 6b9d 97bb
00000380: 03a3 a8bb 1be0 9b3c 66a0 053e 22d0 5b3e
00000390: 51c6 60be 689f e2bd fee3 68bd 36e2 5a3d
000003a0: 6c70 b9bc beb3 3a3d 4f62 0000 0070 4721
000003b0: 6d7e 2b00 feb3 2900 954d 2021 c870 1000
000003c0: 09a4 0780 7ff1 1380 b788 3980 8d06 403e
000003d0: 11a4 cabd 653b c03d 1c07 9fbe d801 5bbe
000003e0: dd92 23be e055 603d fad8 873b 774a 553e
000003f0: 51c9 723d be0e 81bd 0ce9 d0bc 27d0 a2bd
-0.10476614 0.0797571 0.077838905 -0.03752997 0.093682736 0.012693502 -0.101493016 -0.10859124
0.06871203 0.16653106 -0.13980094 0.0367838 0.1245263 0.08865084 -0.049949512 0.008915892
-0.008608489 -0.019407038 -0.015826344 0.31171367 -0.22845353 0.085841686 0.7900245 -0.0714759
-0.11275538 0.12536024 0.12052566 -0.02536666 -0.023649285 -0.031372692 -0.011661187 0.018668931
-0.041616302 -0.0050090747 -0.0071646287 -0.0058604307 0.07386651 0.06166655 0.17971498 0.079213545
-0.08948204 -0.17940515 0.02140987 -0.011449593 -0.022082068 -0.22674757 0.01109901 -0.12220339
-0.051318265 0.109015964 -0.21264248 0.015762279 0.17081179 -0.098425366 0.0130355535 0.07486876
0.0031000483 0.015980275 0.0554027 0.06284431 -0.008020932 0.012405385 0.03050586 -0.0027962667
0.42481124 0.20653886 -0.12705559 0.045800015 -0.21339129 0.056986637 -0.11068099 0.009397773
-0.12280624 0.05751067 -0.110417984 0.03448191 -0.20693265 0.084024034 -0.031543557 -0.16139959
-0.1501946 1.584935e-36 1.0450093e-36 1.4046294e-36 1.8969084e-36 1.0726324e-36 1.2788366e-36 2.5298636e-36
1.49905905e-36 1.932782e-36 -0.026250055 -0.039592683 0.018149547 -0.008223616 0.028452612 0.074421845
-0.008211938 0.002391942 0.0070186877 0.06154038 0.17547926 0.053286985 0.15005149 -0.108610936
0.083309986 -0.018609181 -0.21744181 0.056072727 -0.06724299 0.29605597 0.039214987 -0.030475395
0.1879757 -0.13868251 -0.022722188 -0.0018758529 0.01005524 -0.08593982 0.008355513 -0.006812519
-0.20405042 0.011822954 -0.15840381 -0.100228846 -0.0056775417 0.025218155 0.07522333 -0.00092505646
-0.049437568 0.04414875 0.08658938 0.10654772 -1.5708902e-14 1.710914e-39 -0.0079437625 -0.04785835
0.15824774 -0.03084688 -0.00092123443 -0.09021924 0.04036989 -0.11568378 0.008692196 0.064694986
-0.011083308 -0.0017081365 0.23867908 -0.095097125 0.0120573705 -0.0395742 -0.0012728564 0.07089969
0.11812825 0.2803952 0.122596174 0.1409264 0.08533158 0.018598568 0.029329179 -0.37386453
-0.094690405 -0.2837692 4.788256e-10 1.3806201e-11 9.887008e-12 1.0492227e-08 2.4012484e-15 3.8147745e-14
-3.95259e-39 4.584436e-39 2.689683e-39 9.561919e-07 3.5262456e-05 2.2949391e-10 5.688859e-14 0.00017992216
1.9414417e-15 1.5906292e-12 5.8062984e-08 1.0793312e-12 0.3770214 0.10452032 0.19361416 -0.11607505
-0.08675206 0.19531432 0.00851115 0.0071011977 -0.010420288 1.2437988e-11 1.1238092e-06 8.502982e-15
1.74308e-22 3.7010302e-06 3.810439e-23 4.4182767e-19 1.5184055e-12 1.813594e-19 -0.124823704 -0.018747963
0.13567866 -0.09754856 0.052856956 0.03804355 0.1301108 0.041571893 0.053153228 0.17552267
0.14332603 0.116181634 -0.06011092 0.028290117 -0.22448659 -0.027628835 0.1489908 0.12203496
-0.2258899 -0.05950113 0.07209029 -0.2576673 -0.30943972 -0.11831421 -0.040300712 -0.00462692
-0.0051463856 0.01902776 0.13049468 0.21466115 -0.21950652 -0.110655606 -0.056858055 0.053438388
-0.022636615 0.04558157 3.5266e-41 6.7572053e-19 3.99428e-39 3.829824e-39 5.431279e-19 1.509826e-39
-7.01693e-40 -1.831507e-39 -5.283667e-39 0.18752499 -0.098945744 0.093863286 -0.31060112 -0.21387422
-0.15973993 0.054769397 0.0041457387 0.20829187 0.05927402 -0.0630164 -0.02550175 -0.07949858

conv4.bias f4 [64]
00000000: 5013 f7bd 3d2a 27bd 4647 1bbf 0503 14be
00000010: bbfb 393e 0c32 b8be 1e2c 5abe c9ca 27be
00000020: a3bd 7d3e f1af 143f 0fd2 42bc f321 b5be
00000030: 2dd3 94ba 8765 8cbc 71b7 a9bd 3d7a c1bc
00000040: 7bf4 d8bc edf5 013e 55c4 d6bd 7b11 2cbf
00000050: d18e 1dbe 5581 bdbd 79a6 3bbe 4488 249e
00000060: 12e0 aebb 96dc 1fbe d03f c73c 8ab6 8d3d
00000070: e80e 1ebc 4149 2080 7815 91bc 145e 4fbb
00000080: 64fe 37be 7b91 5fbe b3f4 87be 9e2f 3abe
00000090: d801 1dbf 414d 12bf f358 b1bd 9460 0800
000000a0: 5234 c0be 9917 e2bd bbfb 42be 2353 27be
000000b0: 12f8 913e ab45 82bc c443 eebd c420 47bc
000000c0: 5bcb 82bc b2f2 c4be fbde 0c3f cade 1b3e
000000d0: 50a0 723e 9449 9d3d bb74 24bc 3238 3abe
000000e0: 3a50 41bc a04b 0bbe f73d 7abe 18dc 65ae
000000f0: eeda 6cbb 37b2 fabd f206 24bd 9189 9dbb
-0.120642304 -0.040811766 -0.6065563 -0.14454277 0.18162434 -0.35975683 -0.21305892 -0.1638595
0.24779372 0.58080965 -0.011890902 -0.35377464 -0.0011354439 -0.017138256 -0.08286942 -0.023617858
-0.026483765 0.1269147 -0.10486666 -0.67214173 -0.15386511 -0.09253184 -0.18325223 -8.710267e-21
-0.00533677 -0.1561149 0.02432242 0.06919582 -0.009647109 -2.965014e-39 -0.017710432 -0.0031641768
-0.17968136 -0.2183284 -0.26553878 -0.18182227 -0.6133094 -0.5714913 -0.08659544 7.6933e-40
-0.37539917 -0.11039657 -0.1904134 -0.16340308 0.28509575 -0.01590236 -0.11634019 -0.012153808
-0.015966108 -0.38466412 0.5502774 0.15221706 0.23693967 0.076800495 -0.010037596 -0.181855
-0.011798913 -0.13603067 -0.244377 -5.2264054e-11 -0.0036141234 -0.12241023 -0.040045686 -0.004807659

conv_layers.0.weight f4 [8, 2, 5, 5]
00000000: 86ca 27be 025b cabd bfca d43e 762d 88be
00000010: 77d3 6fbd 6ac8 963e 2c5e b7bd f131 6f3d
00000020: 6e70 eebe 9e42 05bd be89 8abd 820d 4fbe
00000030: ba6a 353e df8b dbbe 34d0 d43d 18e5 7fbe
00000040: 3273 aebe 4da4 9abd 2519 b8bc 871d 603e
00000050: 88d8 f3bd d9fc 8e3d 7cfe 0cbe 2fe1 e53d
00000060: e0a8 013e 4f01 563d 27e6 2ebe 304d 033f
00000070: 3381 923c a481 0cbe 3dde 8f3e 208b 213e
00000080: 2ccc bbbe e2bf 43be 84d1 97ba caf5 593e
00000090: 4965 4e3c 5c4a 8f3e a694 f2bc f7eb 473e
000000a0: 119c 533c dca6 dbbd 5bfa 10bd e3ab 893d
000000b0: 70f8 fabd 6a9b af3c dfa0 febc 8d15 23bc
000000c0: ef80 9fbd 3e6b e5bd 082f d9be fec3 eabe
000000d0: 9b9f e53d a701 983c 7dc1 8c3e 9336 0ebe
000000e0: 4b0a 35bd e9dd c5bc 24ab 583e 1288 e9be
000000f0: 1d04 a83e 97ba 693c e217 b23d d74e c33e
00000100: fef8 edbe bc42 4b3d 19a0 8bbd 3ffd 213e
00000110: b880 1b3d 2cb5 9b3e e3d8 eebd 25d9 f2bb
00000120: 2c31 233d 134f 9a3d 20fd bd3d 78c7 dcbd
00000130: d9b3 943e c864 093e a18a 04bf d014 793d
00000140: e2e8 81bd 807d 26be 4864 ae3d 856a 51be
00000150: e051 c0bd dde3 eb3d a8be 46be 8e36 1abe
00000160: 62fe 56bd 2277 a43e 44c1 e9bc f8a1 febd
00000170: 0dd8 053e 2732 24be b44d 1c3e 7228 58be
00000180: bc24 edbc c0ed 62be bb63 e43c 6774 163e
00000190: afe4 c8be 18e1 8c3e 214b 03bf 820e d83e
000001a0: 56e3 83be 04b4 32be 152c 9bbd c13c 983d
000001b0: e5d7 543e 8df0 593d 647c 8ebe 6bc0 02be
000001c0: 5f43 873d 3ca8 7e3d ac17 39bd 38a2 153e
000001d0: 2853 7e3e 071e 983e a488 fb3d bc5c 99be
000001e0: 1055 f63d 1386 4e3d 5033 623e 5b0c 70bd
000001f0: ed5c 3fbe c1ab 99be 951e 9d3e 3b06 edbd
00000200: 8692 f33d e5ca f33c cd42 89bd 78ab a43d
00000210: 16d1 023d 67cd 963e f0bd a6bd c5ee 99be
00000220: 135f 8abe 568c bebe 56fa 5a3e 59ed 5ebe
00000230: 88cd 79be 1773 543e 1330 4bbe 25e4 e8be
00000240: b36f 6ebe 9186 cf3c 40a7 98bc 671c 7f3e
00000250: 8e3e 8cbe 020e a63d 944e d03d 651e 4e3d
00000260: d51a de3d f03c 5e3e 2755 c7be e817 efbd
00000270: 71f2 5b3e f55b 133c d2dd 1b3d ae43 8dbe
00000280: fe8d a83d cd59 37be 58c5 7d3e 8dda a3be
00000290: e397 083e 41ef da3e f463 babd e4d4 1ebe
000002a0: 1805 35be 05ab 333d 18e7 27bd fa59 153d
000002b0: dc2f 56be ef07 c33d bd42 5c3e 1d10 b93d
000002c0: 74e6 38bd ed14 7ebe fac0 cf3d b179 893e
000002d0: a0f3 1d3e bf05 fa3c b16a 653e c7bb 3ebd
000002e0: a42e 6f3e 8d7e 97be 64ec 083f fa53 d93e
000002f0: 6905 ff3d a396 dbbb ecf3 ff3d 29f2 40be
00000300: 3970 d73c 0716 ccbe 142a 283e 55c7 9dbd
00000310: b597 ad3e 3262 acbe e808 233e 7258 61be
00000320: cd03 f53d a876 43be ec12 7e3e f1ce 053d
00000330: eab2 443e a1ed 143d 0353 47bd 5cb5 0d3f
00000340: 9d98 073e 40ef 153e 1eb7 803d 2dbc 0e3e
00000350: d7ab 02be bba5 7d3e 17d5 30be 04d3 743e
00000360: e624 0d3e 7980 a8be 4f65 23be daa2 e93b
00000370: 89ec b63e 6b14 7f3d 8177 8e3e 8ede 803d
00000380: 532f debd ec1f 213e 84fe f43d 3896 f9bc
00000390: 916b 773e 363b c1bd 116d 933d 2916 a3be
000003a0: 6e1a a8be b1f2 983e 57a4 573d a7b6 51bd
000003b0: e267 10be 87ea c53d 4f8a d6bd 04b0 593e
000003c0: 0632 8dbe 9ef3 87bd ac91 583e 79d1 51be
000003d0: 40e6 a9be 1ea5 f63d caf5 0b3d b380 ebbe
000003e0: 4a55 6a3e 24d3 8dbe 02fd 583e bc9f 3dbe
000003f0: 2e7b 243f 4e62 c5bb 9d9a c13e 0a16 53be
-0.1638585 -0.098806396 0.41560933 -0.26597184 -0.058551278 0.2944978 -0.08953509 0.058397237
-0.46570152 -0.032534234 -0.067645535 -0.20219997 0.17716494 -0.4288015 0.10391274 -0.24989736
-0.34072262 -0.07550869 -0.022472927 0.21886264 -0.119065344 0.069818206 -0.13768953 0.11224591
0.12662077 0.05224734 -0.17079984 0.51289654 0.017883873 -0.13721329 0.28099242 0.15775728
-0.36679208 -0.19116166 -0.0011582826 0.21285167 0.01259739 0.2798642 -0.029611897 0.19523607
0.012915627 -0.10725185 -0.035395008 0.06722238 -0.12254417 0.021436412 -0.031082569 -0.009953869
-0.07788264 -0.112020954 -0.42418694 -0.45852655 0.11212083 0.018555475 0.2749137 -0.13888006
-0.04419927 -0.024153667 0.21159035 -0.45611626 0.32815638 0.014265678 0.086959615 0.38146088
-0.46479028 0.04962419 -0.068176456 0.15819262 0.037964553 0.3041166 -0.116624616 -0.0074111396
0.039841816 0.075346135 0.092767954 -0.10780233 0.29043463 0.13417351 -0.5177403 0.060810864
-0.06343247 -0.16258812 0.08515221 -0.2045079 -0.093906164 0.11518071 -0.19408667 -0.15059873
-0.052488692 0.3212214 -0.028534539 -0.12433237 0.13070698 -0.16034757 0.15264016 -0.21109179
-0.02894818 -0.22161007 0.027879586 0.14692841 -0.39236972 0.27515483 -0.5128651 0.4219857
-0.2575938 -0.17451483 -0.07576767 0.07433463 0.20785482 0.053207923 -0.27829278 -0.12768714
0.06604647 0.06217216 -0.04518859 0.14612663 0.24836409 0.2971041 0.122819215 -0.29953563
0.12027943 0.050420832 0.22089887 -0.058605533 -0.18687792 -0.3001385 0.30687395 -0.11573454
0.118931815 0.029759834 -0.06702194 0.080405176 0.03193768 0.29453585 -0.081416965 -0.3006498
-0.2702566 -0.37216443 0.21384558 -0.21770228 -0.2439481 0.20747028 -0.19842558 -0.4548656
-0.23284797 0.025332721 -0.018634439 0.24913178 -0.27391475 0.081081405 0.101712376 0.050321955
0.108449616 0.21702933 -0.38932154 -0.11674482 0.21479203 0.008994092 0.03805334 -0.27590698
0.08230208 -0.1790535 0.24782312 -0.3200268 0.1333919 0.4276066 -0.09101096 -0.15510899
-0.17677724 0.04386427 -0.040991873 0.03646276 -0.20916694 0.095229976 0.21509834 0.090362765
-0.045141652 -0.2481267 0.10144229 0.26850656 0.15424967 0.030520318 0.22403981 -0.046565797
0.23357636 -0.29588738 0.53485703 0.42446882 0.12452204 -0.006701307 0.12497696 -0.18842377
0.02629863 -0.39860556 0.16422302 -0.07704035 0.33904806 -0.33668667 0.15921366 -0.22006395
0.119636156 -0.19088233 0.24811906 0.032668058 0.19208875 0.036359433 -0.04866315 0.5535486
0.13241811 0.14642048 0.06284927 0.13938971 -0.12760864 0.24770252 -0.17268787 0.23908621
0.13783607 -0.32910517 -0.15956615 0.007130009 0.35727337 0.06227533 0.2782555 0.06292449
-0.1084887 0.15734833 0.119626075 -0.030467138 0.24162127 -0.09435122 0.07198537 -0.31852844
-0.32832664 0.2987266 0.05264696 -0.05119958 -0.14102128 0.09663873 -0.10475599 0.21258551
-0.27577227 -0.06638263 0.2114932 -0.20490064 -0.3318348 0.12043212 0.03416995 -0.45996627
0.22884098 -0.2770015 0.21190265 -0.18517965 0.6425046 -0.0060236817 0.37813273 -0.20613876

conv_layers.0.bias f4 [8]
00000000: 6762 9abc 10d7 efbf 01f7 91bc 5ba8 14bd
00000010: e8c8 44bd 0a3a d7bc 61ed f5be bf1a 8abc
-0.01884575 -1.8737507 -0.017817976 -0.03629337 -0.04804316 -0.026272792 -0.48032668 -0.016858457

conv_layers.3.weight f4 [16, 8, 3, 3]
00000000: 4932 b3bc 7e50 4cbc dada 5bbc 655f b1bc
00000010: 2bd5 7cbc 97f6 8bbc 211b 94bc 30ff 71bc
00000020: 6b09 9bbc 0994 87bc b5b5 4cbc 05ad 75bc
00000030: 7234 d4bc 55c1 3ebc 42cd d6bc 04bf 64bc
00000040: 86f5 b3bc ac8b d6bc 7631 86bc 19d1 7bbc
00000050: 2abb adbc 001e c4bc 2e15 abbc 8019 9cbc
00000060: 96e4 99bc 45fe 9bbc 1171 a7bc c7a1 9dbc
00000070: 76cd 86bc a98e aabc 0f3d 63bc 9c43 a7bc
00000080: 3dab bbbc 947a 66bc 5282 1abc 297f 3cbc
00000090: aef2 85bc e882 6abc 90b3 83bc 70ca 83bc
000000a0: e0ca 82bc 730d 81bc 128d 96bc 5386 22bc
000000b0: 55fe bebc 7dc5 d0bc b6b2 51bc 7d24 77bc
000000c0: 2a26 89bc cacc 91bc a15e dfbc 37e9 65bc
000000d0: c35b 17bc 9508 67bc a987 c0bc 9cf5 9dbc
000000e0: 5a63 c4bc d615 d2bc 3cf1 8bbc 56ba e7bc
000000f0: 0e66 28bc 2948 8bbc b765 dfbc 9733 c0bc
00000100: 81eb 74bc b652 cbbc b42d 92bc 4849 85bc
00000110: 73f2 bfbc adc2 58bc ec85 7dbc a18c a2bc
00000120: 2605 34be c7c9 17ba 25fe 2f3e 9772 c1be
00000130: d56f b83e 0e7b d1bc 7363 993e 060b 8ebe
00000140: 2647 afbe b36c edbd acfe 16bc 0474 21be
00000150: fd7e dabd f197 c2be 5eef 67bf 218d a03d
00000160: 15d8 bfbe 384b 36bf 9a0b 9b3a c979 043e
00000170: aa1a 4bbe 9cc6 72bd 35a8 84be 583d 35bf
00000180: e436 093d 0c92 c83e cae4 213d 7b0e 24be
00000190: 93fb 92be 7367 0a3f ad8c 64be 7735 b7bd
000001a0: e27e 47be 49e3 7fbd 8934 1e3d 3082 d8be
000001b0: 9343 0abe 9b2b 09be 9654 6b3e 5334 80bd
000001c0: 8435 20be b78f c3be ffce 17bb 9c56 80be
000001d0: 764d 9f3e b737 a9be 5df0 04bf 7bd2 03be
000001e0: 4b30 81be fa02 c2be 61aa 28bf bbda 8ebe
000001f0: 06b4 a83e ba42 b2be c1ee 47bd e110 efbe
00000200: fa67 ff3d 63b4 08bd 1ca5 f23d 0b49 01bf
00000210: 4aea 333c dd94 40bf bfc9 08be c7c9 44bd
00000220: 4fc1 16be 432d 5b3e 02ae 5ebd be46 0dbd
00000230: f486 48be ffc3 f63b 9822 413e 4da4 babe
00000240: 7f23 a6bd 5e76 c8bd 6053 25be d299 a0bd
00000250: b947 00be 9834 8ebd 8031 8abb c526 8a3c
00000260: ca5e d1bd 534e 48bd 14be fd3c 5fc3 883d
00000270: 092c 7abd 9fa7 963d 2196 f73d ae5c 80bc
00000280: dfd2 abbd 86b1 34bc 4f87 26be 51c8 ff3c
00000290: c552 7ebd 1e0d 11be 685a f33c db9e adbe
000002a0: e64c 2abe d919 39bd 5c5f 7cbe df41 bbbd
000002b0: 8159 11be 988c 123c 5e76 383e 9542 683e
000002c0: fbfa fc3e 1369 6b3d 182e 0ebd 8cc9 85be
000002d0: 7c9d 03be 7430 e8bd 77e5 9dbc 91f3 ddbd
000002e0: 9b39 09be 9c16 0abb ca5c 5d3d 75e5 fe3d
000002f0: 7717 433d 2c87 10be 2c46 3cbd 7029 433d
00000300: 3414 a63b 54cb 46be e144 343d d73b db3c
00000310: 231a 71be 613f 7dbe b07f d3bd ea03 27bd
00000320: 67cb eabb 5cc7 803c 511a 503d ad39 a8bd
00000330: aa68 443c 8e5d 103e 87d0 b1bb 59f0 66be
00000340: c9b5 3bbe b686 99bd c61d 573c aa1f 1ebe
00000350: c7f5 82bd ec08 ec3d 7632 1b3e 47f9 60be
00000360: f494 1f3e 649f ba3e e1db 5f3e fc8a 16be
00000370: 1091 21be 772b d6bd 673a f8bd c36d 87bf
00000380: 7ec4 d2bd a0ac c9be e71b 6cbf c3db f6be
00000390: 84a6 05bf 430a 2dbf 66bf 07bf 8237 78be
000003a0: b545 cebd a47a bdbe 56fb 723e f701 9a3e
000003b0: 9324 653e cc4c ccbd 8ee0 4abd e6c9 6a3b
000003c0: bce5 86be eda2 5fbf 1835 d4be cb2c 463e
000003d0: a5fd 393e 760a cb3c df6c bdbc c73b 48be
000003e0: eae2 53be 90d8 1bbe 60a9 5bbf c4dc 2abe
000003f0: a501 36be 4df3 5c3d 24fc 033e fae1 46be
-0.021874564 -0.012470363 -0.0134188775 -0.021651933 -0.015431683 -0.017085357 -0.018079342 -0.014770314
-0.01892539 -0.01655008 -0.012494494 -0.014994864 -0.025903914 -0.011642774 -0.026220921 -0.013961557
-0.02196766 -0.026189648 -0.016381007 -0.015369677 -0.02120741 -0.023940086 -0.020884123 -0.019055128
-0.018785756 -0.019042144 -0.020439656 -0.01924218 -0.016455393 -0.020819979 -0.013869538 -0.02041798
-0.022908801 -0.014067311 -0.009430485 -0.011504927 -0.01635107 -0.014313437 -0.016076833 -0.01608774
-0.015965879 -0.015753483 -0.018377814 -0.009919721 -0.023314634 -0.025484795 -0.012798956 -0.015084383
-0.01674183 -0.017797846 -0.027266802 -0.0140326535 -0.009238186 -0.014101167 -0.023502188 -0.019282155
-0.023973156 -0.025645178 -0.017082803 -0.028287094 -0.010278238 -0.017002182 -0.027270181 -0.0234621
-0.014948727 -0.024819713 -0.017844059 -0.016270295 -0.023431038 -0.013230008 -0.015473824 -0.019842448
-0.17580089 -0.000579026 0.17186792 -0.37782738 0.3602282 -0.025571372 0.29958686 -0.27742785
-0.3423397 -0.11592998 -0.009215992 -0.15766913 -0.10668752 -0.38006547 -0.9059962 0.07839418
-0.37469545 -0.71208525 0.0011829019 0.12937082 -0.1983439 -0.05927144 -0.25909582 -0.7079673
0.033499613 0.39173925 0.03952483 -0.16021149 -0.2870756 0.540641 -0.22319289 -0.089457445
-0.19481996 -0.062472615 0.03862432 -0.42286825 -0.1350234 -0.1339554 0.22981486 -0.0625998
-0.15645415 -0.38195583 -0.002316415 -0.25066078 0.31113786 -0.3305032 -0.51929265 -0.1287326
-0.25232157 -0.37892896 -0.6588498 -0.27901253 0.32949847 -0.34816533 -0.048811678 -0.46692565
0.12471004 -0.033375155 0.11847898 -0.5050208 0.010981152 -0.7522715 -0.1335821 -0.048043992
-0.14722179 0.21403985 -0.054365166 -0.034491293 -0.1958273 0.007530689 0.18860853 -0.36453477
-0.08112239 -0.09788202 -0.16145086 -0.07841839 -0.1252736 -0.06943625 -0.0042173266 0.01686419
-0.10223158 -0.04890282 0.030974425 0.06677889 -0.06107715 0.0735619 0.12089182 -0.015669193
-0.0838983 -0.011028653 -0.16262554 0.031223448 -0.062090654 -0.1416516 0.029706195 -0.3391026
-0.16630897 -0.045190666 -0.24645752 -0.09143423 -0.141943 0.008944653 0.18013903 0.22681649
0.49410233 0.057473253 -0.034711927 -0.2613033 -0.12853044 -0.11337367 -0.019274456 -0.10837472
-0.13400881 -0.0021070605 0.05404357 0.12446109 0.0476298 -0.14114064 -0.04596536 0.04764694
0.0050683264 -0.19413501 0.044011 0.026761932 -0.23545127 -0.24731208 -0.10327089 -0.040775217
-0.0071653607 0.015720062 0.050806347 -0.08214126 0.0119878445 0.14098188 -0.0054264697 -0.22552623
-0.18331064 -0.07496397 0.013129657 -0.15441766 -0.063945346 0.11525139 0.15155968 -0.21970092
0.15584165 0.3644973 0.21861221 -0.14701456 -0.15777993 -0.10457509 -0.12120514 -1.0580372
-0.10291384 -0.39389515 -0.92230076 -0.4821454 -0.5220721 -0.67593783 -0.53026426 -0.24239925
-0.10071889 -0.3700763 0.2372869 0.30079624 0.22377233 -0.09975585 -0.04953056 0.0035825907
-0.26347148 -0.8735798 -0.41446757 0.19353025 0.18163164 0.024785262 -0.023123203 -0.19554053
-0.2069203 -0.15219331 -0.8580532 -0.16685778 -0.17774065 0.053942967 0.12889153 -0.1942214

conv_layers.3.bias f4 [16]
00000000: 19e3 8abc b711 e8b9 ef4a 9ebe 4a65 173e
00000010: 37c5 c13d 6d2f 6cbe 3dfc 3bbb c423 5cbd
00000020: b35e 5ebd 5965 1abe 0bf4 71bd 3814 0b3f
00000030: a0bd 52bb 98b6 3c3e e857 c1bc 3370 9abd
-0.016953992 -0.00044263687 -0.30916545 0.14784732 0.09461444 -0.23064966 -0.0028684281 -0.053745046
-0.05428953 -0.15077724 -0.059070628 0.54327726 -0.0032156482 0.18429029 -0.023601487 -0.075409316

conv_layers.6.weight f4 [32, 16, 3, 3]
00000000: 9c1a 993c c201 f8ba d69b 7abc 12dc c33a
00000010: e073 09bc e6c8 f0bb 038a 0c3c 161e 59bb
00000020: a18b 953a 712b 763d 187d 81be e46a f23d
00000030: 0dfe 5dbe 1db6 903d e24d 74bd 3cbe 33bd
00000040: bd27 23be fc79 1fbe fabd 7a3d 072f 66bd
00000050: c2fe 9d3d 82b2 41be b3b7 c4bd 8e8b 45bd
00000060: f553 9f3c 4eb7 3d3d 0f90 df3d 3681 273d
00000070: 6ece b3be 71d9 5ebe 5261 c9bd d645 bbbe
00000080: 01bd 92be 60ac 0bbe ced3 b0bd 4792 0cbe
00000090: a2f1 1a3e d581 a33d 9f4e df3c ed0c 9b3e
000000a0: e4ee c03e 6d2d 563e a4bb da3d 62eb cb3d
000000b0: aa02 a33d bbae a13d 5bb2 e9bd 93e3 6e3d
000000c0: 98dc 36be ed59 ffbd 407a 593e cce0 eabc
000000d0: 5649 c33e 435b 3e3e d399 723d 80be d2bd
000000e0: b0d3 8c3e 0dc2 083e ff07 fbbe 6503 48be
000000f0: 3ffd 003e 3d4a d33d fed6 e13e 14b1 9abe
00000100: f116 c03e 3df3 4bbe bbad b3bd d55e cfbc
00000110: b6c7 57bd 3607 63bd 2d79 d93d 2931 36bd
00000120: 2a92 d7bc f3c5 89bb 0ea0 1abb 40f1 9aba
00000130: c115 a0bb dbca 263c f7e5 883c 1c3a 1c3c
00000140: c05e df3b 9d12 ee3e 8904 8b3e cde1 683e
00000150: 7fba 103f 8b98 a1bd c20e 693c 8893 ba3d
00000160: 22e9 8c3e 8fd5 83bd fe1c 30bd acd0 053e
00000170: a260 88bd de64 1e3d 6c12 9abe c25e 493d
00000180: 3a22 033d db96 a8bc cf8c 5f3e 6c38 0a3e
00000190: 9433 6cbe b229 3939 0b24 b1be 36d6 d5be
000001a0: b4e0 fdbd aa82 543e 342e 17be fa54 c43c
000001b0: 5825 283e f874 0dbe 50a7 643e e4cc 303e
000001c0: a693 863d e4fa 8a3c df3e 063d e559 bb3d
000001d0: 2c50 a73d 638f 01bd cc77 d13c 8304 5d3b
000001e0: d3b7 10be e6bd 7bbe 633c 11be 29ef 433e
000001f0: ef23 583b 5d43 b33d fc3b d03b 5f45 143c
00000200: 439f 0c3c 9a36 7cbb 7129 653b 3504 5c3c
00000210: 079d f8bb 0361 f9ba d0d2 1e3c 0aa9 293e
00000220: bf15 843e 9cd7 5e3e 4e6d 8bbd b397 0ebe
00000230: f72f 92bd 24db 47be 1be2 38be 474a a2bd
00000240: 23c2 cc3a 5730 c33b 484a 8a3b e35b 723b
00000250: 7555 3a3c ac62 2f3c 5dd6 003a 59f5 693b
00000260: 673e 0b3c c044 3cbd 331c 2cbe ee0b c43d
00000270: 62fa b33e 1800 7d3e d637 af3e 54d5 9ebe
00000280: b735 d53d 1607 183f eb41 33bc 27a4 6d3b
00000290: 3c31 10bd 7e69 c9bc af61 b0bd 3918 ee3c
000002a0: 7b07 b8bd bc2d e33d af07 cd3d 33d1 cfbd
000002b0: d009 3d3c d3db 5a3c c231 e5be 5e07 db3c
000002c0: 82e4 39be 2696 68be ca67 c6be 3dbc ba3e
000002d0: 6b96 4abe 84cb bebd d048 f9bd 8922 e9be
000002e0: d896 f13d ccbb 2e3e 804d fcbe a760 15be
000002f0: bc25 563e bed6 eb3c 3509 103d f787 0a3e
00000300: 99de d2bd 0977 a33b 0c9a b2bd c241 23bd
00000310: 626c 303e 3cae 53be 62b3 493e 147d bcbd
00000320: 4fef dc3d c7c0 0e3e 0d3c d4bd 5c98 24be
00000330: 071d 8f3c 13bd adbe b7a2 123f 39ce 343d
00000340: 0d17 bfbd a2b9 62be d594 e6bd a423 1bbe
00000350: 0eb6 0ebc e69e 5cbe 8114 f9bc 3366 ae3d
00000360: 4a53 9f3c 94ce 6c3c 947c bf3c f735 193d
00000370: 30ab ae3c 01bb 253d a5fb 1c3d 4ea0 ed3c
00000380: a2b2 2e3c d93d 17bc 67a5 723d e6af 2fbd
00000390: 891a ca3e f4bf 3a3f 7477 4f3b 5b8b 8e3d
000003a0: e515 33be a35f 2e3d 47fa 03be 29a8 01bf
000003b0: 51f2 8abe 29b9 1e3b 6a82 d73e e158 843e
000003c0: 03e8 73be 43a0 a9be 7dd8 63be 4eae 9ebe
000003d0: 1568 6ebc 627c e03d 2ad6 2e3f c969 af3d
000003e0: 32ba 99bf 4a15 c9bd 2b5f 843e 9cf4 6fbd
000003f0: 36c8 b7bd 731a 823c 2074 d0bc 6abe 983b
0.018689446 -0.0018921422 -0.015295943 0.0014942905 -0.008389443 -0.0073481677 0.008577826 -0.0033129505
0.001140941 0.060100023 -0.2529075 0.11836794 -0.21678944 0.07065985 -0.059644587 -0.043882594
-0.15933128 -0.15573877 0.061216332 -0.056197193 0.07714607 -0.18915752 -0.0960535 -0.048228793
0.019449214 0.04631739 0.10916149 0.04089471 -0.3511843 -0.21762635 -0.098330155 -0.36576718
-0.28659824 -0.13639975 -0.086341485 -0.13727675 0.15131238 0.07983748 0.02725917 0.302833
0.3768226 0.20915766 0.10680321 0.09957005 0.079594925 0.07894655 -0.11410972 0.0583225
-0.17857587 -0.12468324 0.21238041 -0.028671645 0.38141888 0.18589501 0.05922873 -0.10290241
0.27505255 0.13355274 -0.49029538 -0.19532545 0.12596606 0.10316894 0.4410934 -0.30213225
0.37517503 -0.19917007 -0.08773371 -0.025313774 -0.052680694 -0.0554268 0.106188156 -0.044480477
-0.026314814 -0.0042045056 -0.0023593935 -0.0011821166 -0.004885406 0.0101802 0.016711218 0.009535339
0.006816715 0.46498576 0.27151898 0.22742386 0.5653457 -0.078904234 0.01422471 0.091101706
0.27521616 -0.064372174 -0.0429964 0.13067883 -0.06659056 0.038670413 -0.3009218 0.049162634
0.032015063 -0.020579746 0.21831058 0.13498086 -0.2306655 0.00017658508 -0.3459781 -0.41764992
-0.12396374 0.2075297 -0.14763719 0.023966301 0.16420496 -0.13814151 0.2232945 0.1726566
0.065711305 0.016965337 0.032774802 0.091480054 0.081695884 -0.031630885 0.025569819 0.0033724613
-0.14132623 -0.2458416 -0.14183192 0.19134201 0.0032980402 0.08753083 0.006354807 0.0090497425
0.008582893 -0.0038484694 0.0034967328 0.013428737 -0.0075870785 -0.0019026104 0.009693816 0.1656839
0.2579784 0.21761936 -0.068079576 -0.13925056 -0.07138055 -0.1951719 -0.18055002 -0.079243235
0.0015621822 0.0059566903 0.004220281 0.0036981038 0.011372914 0.010704678 0.0004914755 0.0035699217
0.008498765 -0.045964003 -0.16807632 0.09572588 0.35151964 0.24707067 0.34222287 -0.3102213
0.10410636 0.5938581 -0.010941009 0.0036261172 -0.035203204 -0.024586435 -0.08612382 0.029064285
-0.08985802 0.110927075 0.10011231 -0.101473235 0.011537984 0.013358074 -0.44764525 0.026736911
-0.18153575 -0.22713527 -0.3875106 0.3647174 -0.19783942 -0.09316161 -0.12172091 -0.4553416
0.11796349 0.17063826 -0.49277878 -0.14587651 0.20912832 0.02878892 0.03516503 0.13528429
-0.102963634 0.0049885553 -0.08720788 -0.039857633 0.17228845 -0.20671934 0.19697335 -0.09203544
0.10787832 0.13940726 -0.10363016 -0.16073745 0.017469896 -0.33933315 0.57279533 0.04414198
-0.093305685 -0.22141126 -0.11258856 -0.15150315 -0.008710397 -0.2154499 -0.030405285 0.08515587
0.019448895 0.014453549 0.023374833 0.03740498 0.021321863 0.040461544 0.038325924 0.029007103
0.010662707 -0.009231054 0.05923977 -0.04289236 0.3947337 0.7294915 0.0031656893 0.06960174
-0.17488821 0.042571675 -0.12888442 -0.5064722 -0.27137998 0.002421925 0.42091686 0.2584906
-0.23818974 -0.33130082 -0.22250552 -0.3099236 -0.014551182 0.10961224 0.6829554 0.08565099
-1.2009947 -0.09818514 0.25853857 -0.058582887 -0.08973734 0.015881753 -0.025445998 0.004661371

conv_layers.6.bias f4 [32]
00000000: 1dc8 933c 60fe 1a3e a34a f8bd 87a6 9abc
00000010: 1f18 873e 34b1 f4bd bdef 24bd 5ee0 e1bd
00000020: ff7e 873e 68f6 48a1 4cdf 2fbd ec60 0f3d
00000030: c6ee e23d a9de e2be 7f89 18be a125 27bf
00000040: b336 c4bd 836c 283f bd45 0bbd 6845 71bc
00000050: 832b 5fbd 07ef 62bc 95dc 8fbd e26c 243d
00000060: dcc8 d03e baee 4ebe 6b78 04bc 6f5c a93e
00000070: 84ac 633e 5870 cfbd 1118 a63b cebf 8dbc
0.018039757 0.15136099 -0.12123611 -0.018878235 0.2638559 -0.11947861 -0.040267695 -0.11029123
0.26464078 -6.808875e-19 -0.042937562 0.03500454 0.11080699 -0.443105 -0.148962 -0.6529179
-0.095807455 0.65790576 -0.034002054 -0.01472602 -0.054484855 -0.013850934 -0.070244946 0.0401429
0.40778244 -0.20208254 -0.0080853505 0.33078334 0.22233778 -0.1012885 0.005068787 -0.017303374
